left-right/eegnet_model.pth (torch, 17003 bytes, 18 tensors)

conv_temporal.weight f4 [8, 1, 1, 100]
00000000: e6d1 c9bc cc13 233d fdfe 75bd b558 90bd
00000010: 8f84 b4bd bfc8 38bd 31c4 043c b611 e1bd
00000020: 1f34 88bd e461 9cbd 1d0e 12bd b25d 2bbd
00000030: 9d5d 5fbd a67d 083d 4890 5bbc 6dc8 2fbd
00000040: b594 583b a9f7 193c 7e04 ed3c b9c7 8f3d
00000050: 34a4 e3bb 15c6 bd3a 1a7b 4ebc cbd4 083d
00000060: 0b97 873c 2226 92bc 045a ce3d 1664 abbc
00000070: aabb 533d 1ea8 0f3d 65e2 313c 86b1 cc3d
00000080: 2d3c 08bd 84b0 483d 157f 993d 1432 75b9
00000090: a105 043d 799a 91bc 91c0 5abc bea2 ee3c
000000a0: a1bc 893d 6662 95bd 87c1 87bd 6b5f e2bc
000000b0: 2a47 d6bc b09c 0c3c 74cd 0cbe 0b79 66bd
000000c0: 7e14 88bd 3b9e 94bb 856e 05be a275 efbd
000000d0: 55be 88bd e2a2 a7bd 720f f03c 8a14 2e3d
000000e0: 22d1 b6bd d316 88bd f45d 4bbd 8b7c 303d
000000f0: 1770 35b9 e212 533c 2497 75bd 4497 453d
00000100: d4da a83d fd9c ed3c 5552 823d bb9c 0cbd
00000110: 71ae a8bc 8849 893d 0135 3d3d a92e ad3c
00000120: 0e03 583d 1688 d53d 0e9d 6bbb c163 033d
00000130: 3afa 083d 0aea 203d 443f 243d 9fc4 f13c
00000140: cf90 003d b2fc ed3d 164e 603c fadd 4f3d
00000150: d33c 7d3c 910d b53c a7a2 493d b68d 9dbc
00000160: f842 323d 5e46 593d 5314 da3c d840 6bbc
00000170: b8ce aebb ff5f ac3c cd6e 783d 11b1 2ebd
00000180: 6702 44bd cdf4 45bd 7080 233d bfa5 97bc
00000190: acee 4abd 5030 c3bd c76d 07bd c80d 98bd
000001a0: a2cd 7dbd 596b a23d ff2c 973d f1bc 0a3d
000001b0: bf96 863c dc5a 2d3d a197 53bd 66c3 8b3c
000001c0: 604b 003d 78e4 b73d 149f 63bc fb6c f53d
000001d0: 7aad f53d a6fc fa3b 814d 8c3d dfb4 13bd
000001e0: eb0a 663b 1e75 fd3a a64b f43c 4a46 e23d
000001f0: 71da 573c ae20 3f3d 3efb 2c3c baa5 82bc
00000200: 25af 3fbb 34f0 06bc c69a b8bc 8967 4a3d
00000210: 565b 323d 7aeb 163d 47d0 50bd 8d64 7a3d
00000220: 2ce3 6cbd 3616 083d 7003 71bc 3fa5 a1bd
00000230: ace2 85bd efcf 863c b1d0 ac3c a813 1dbd
00000240: 77d7 17bc f3dc c3bd 7f58 15bd edf6 5d3b
00000250: 6ae4 b2bd 6495 69bd 20cb 6abd 7c22 c93c
00000260: 9dbd d0bc 6ce8 a8bd 0d27 8fbd ec9c 9dbd
00000270: 84be 73bd dd24 54bd cb50 bd3c 0509 0ebd
00000280: 625c 11bd 885a 053d b8a6 7abd bb2a b2bd
00000290: 7127 933d fd77 823d a718 4e3d 2df3 c3bc
000002a0: 750c b2bd f87f 00bd 33ac d63c 9d84 7a3a
000002b0: 877e 293c 945f 653d 093b f73b d7b8 f53c
000002c0: e4e2 e33d 72d9 40bd 6906 763d 8108 2d3d
000002d0: 205b 4dbd fa4c 43bd 9a6c 7c3d ae59 59bd
000002e0: cb6c a7bc 6ad9 6f3d 1a15 10bc a7ac b43d
000002f0: 249c 46bd 4033 cc3b b8fb e8bb 2d01 f6bb
00000300: 64ad 653d 5515 8abd 49d7 63bd f7d6 1d3b
00000310: 96c7 e13c 58d5 893d 2d16 563d 74a9 a13d
00000320: 15cd cb3c f02f a83c bd1a 3cbd 7b25 163d
00000330: fa62 2f3c afe8 313d ab41 883d 7f17 23bd
00000340: 2c02 2f3d eee4 083b 372d 29bc b76a 133c
00000350: 66c8 a1bd cd56 393d ee68 a5bd d01c c9bc
00000360: 800a 43bd 0148 fdbb 19e5 fa3c f574 c9bc
00000370: e089 7b3d 935e 0c3d 7a79 84bd 64de 953d
00000380: c3af 79bd f316 433d cc1b 57bc bf5d 003d
00000390: d744 563d a3f1 103d 42fa 2a3d 7466 90bd
000003a0: 07d4 f7bc ae1e 683d f506 5cbd 4361 493d
000003b0: 320c 423c 80f7 84bd eb60 72bd dd11 e0bc
000003c0: 41d4 64bb 0e1a 893d 5e37 93bd 2883 05bc
000003d0: 98dc 9bbd f185 9ebc 0b7f cdbc 6d27 3abd
000003e0: a025 0e3c 2c5f bb3c 6b06 c63c efa2 7cbd
000003f0: 1980 15bd 283f de3c 14fd 9dbc e30f 67bd
-0.02463622 0.0398138 -0.06005763 -0.070481695 -0.08814346 -0.04511332 0.008103416 -0.10989706
-0.06650566 -0.07635859 -0.03565799 -0.0418374 -0.054532636 0.033322953 -0.013401099 -0.04291575
0.003304762 0.009397426 0.028932806 0.07020516 -0.006947065 0.0014478589 -0.012602592 0.03340606
0.016551515 -0.017840449 0.10075763 -0.020921748 0.051692642 0.03507244 0.010857199 0.099947974
-0.033260513 0.048996463 0.07494942 -0.00023383676 0.03223193 -0.017773854 -0.0133515755 0.029130336
0.06725431 -0.07294159 -0.06628709 -0.02763339 -0.02615698 0.008582279 -0.13750249 -0.05626778
-0.066445336 -0.004535464 -0.13030441 -0.116923586 -0.06676928 -0.08185364 0.02930424 0.042500056
-0.08926608 -0.066449784 -0.049650148 0.043087523 -0.00017303262 0.01288292 -0.059958592 0.04823996
0.08244863 0.029005522 0.0636336 -0.034329157 -0.020590993 0.06703478 0.046193127 0.021140413
0.05273729 0.10426347 -0.0035951766 0.032077555 0.03344176 0.039285697 0.040099397 0.029512702
0.0313881 0.116204634 0.013690492 0.050748803 0.015456396 0.022101196 0.049227383 -0.019232612
0.043520898 0.053045623 0.02662102 -0.014358722 -0.0053347014 0.021041868 0.060652543 -0.042649332
-0.047853854 -0.048329163 0.03991741 -0.018511651 -0.04954402 -0.09530699 -0.033063676 -0.074245036
-0.061963685 0.07930631 0.07381629 0.033871595 0.016429303 0.04232298 -0.051658276 0.017060947
0.031321883 0.08979124 -0.013892908 0.11983677 0.11995979 0.0076595126 0.0685072 -0.036061164
0.0035101722 0.0019337272 0.029821228 0.11048563 0.013174639 0.046662025 0.010557948 -0.015948165
-0.0029248681 -0.00823598 -0.02253474 0.049415145 0.043544136 0.03684566 -0.05097988 0.06113105
-0.057833835 0.033224307 -0.014710292 -0.07892846 -0.06537375 0.016456572 0.021095606 -0.038348824
-0.009267679 -0.09563627 -0.03646135 0.0033869103 -0.08734973 -0.057027236 -0.05732262 0.024552576
-0.02548104 -0.08247456 -0.0698987 -0.07695946 -0.05950786 -0.051792968 0.023109814 -0.03467657
-0.035488494 0.03255704 -0.06119415 -0.086995564 0.07185257 0.06370542 0.05031648 -0.023919666
-0.08693782 -0.03137204 0.026205158 0.0009556504 0.010345108 0.055999354 0.0075448793 0.029995365
0.1112726 -0.047082372 0.060064707 0.042244438 -0.05013573 -0.047680832 0.061627008 -0.05306404
-0.020437619 0.05855695 -0.0087940935 0.08821993 -0.04848875 0.0062316954 -0.0071100853 -0.0075074644
0.05607356 -0.0674235 -0.055625234 0.0024084428 0.02756099 0.06730145 0.052267242 0.07893649
0.024878064 0.02053067 -0.045923937 0.036656838 0.01070475 0.043434795 0.0665315 -0.03981733
0.04272668 0.0020888406 -0.010325721 0.008997611 -0.07899551 0.045248795 -0.080766544 -0.024549872
-0.047617435 -0.007729531 0.03062682 -0.024591902 0.061410785 0.03426988 -0.06468482 0.07317808
-0.060958635 0.047629308 -0.013129186 0.031339403 0.052311745 0.035386693 0.04174257 -0.070507914
-0.03025247 0.056669883 -0.053717572 0.04916502 0.011843728 -0.064925194 -0.05917446 -0.027352268
-0.0034916552 0.06694423 -0.07188295 -0.008148946 -0.07610434 -0.019350978 -0.025084993 -0.045447756
0.008675963 0.02287253 0.024172982 -0.061678823 -0.036499117 0.027129725 -0.019285716 -0.056411635

bnorm_temporal.weight f4 [8]
00000000: d5a7 963f 5ac7 873f 61ca 803f 919d 883f
00000010: 8b46 853f 0de0 6a3f 9163 883f ddcc 723f
1.1769968 1.0607712 1.0061761 1.0673085 1.0412153 0.91748124 1.0655385 0.94843847

bnorm_temporal.bias f4 [8]
00000000: 9a00 3b3c 25c3 b63b dfb5 123c 3ca6 603c
00000010: befc c1bb 7f0e 733b db05 cbba 05ce 07bb
0.011413718 0.0055774623 0.008954494 0.013711508 -0.005920022 0.0037087498 -0.0015489416 -0.0020722162

bnorm_temporal.running_mean f4 [8]
00000000: 042c 4ebb 162c 39bb fc8a bb3d 6df1 2ebc
00000010: 78d7 9c3b 42b2 87bd 1461 ec3c d722 28bd
-0.003145934 -0.0028255037 0.091573685 -0.010677678 0.004786428 -0.06625797 0.028854884 -0.04104885

bnorm_temporal.running_var f4 [8]
00000000: 5343 f541 5b19 bf41 b22e 8742 1334 2842
00000010: 709c 0e42 0740 c141 242a 3b41 a2c1 8d41
30.657873 23.88738 67.5912 42.050854 35.65277 24.156263 11.697788 17.719547

conv_spatial.weight f4 [16, 1, 19, 1]
00000000: 1313 22bd 838e fc3c 7c7f 1e3e 1bb3 0dbe
00000010: d66f efbd 5cf4 aa3c dd24 7dbd da3f e73d
00000020: 654f b7bc 3302 9fbd fb8d febc 0334 cb3c
00000030: cbc3 1bbd 6b0f 1e3d 2be1 0a3e 4fc1 0fbd
00000040: 1f17 3b3d b3df 7abb 787a f33c 8eed e83d
00000050: f33d 6fbd 39ed 58bd e9c1 cfbd 050c e53c
00000060: 42d3 eb39 5c41 01bd 1749 993c 612b e8bd
00000070: f2b1 ebbd a66d bf3d 12b0 0dbd 9c9e 38bd
00000080: f475 bc3d ffda e7bc 9e27 d53d 5c35 4bbe
00000090: 5cd5 0d3e 24e0 e3bd 7e9d 9e3d 5a8b 2fbd
000000a0: 344c cbbd 84ee 10be d3e3 9abe bfc2 093e
000000b0: a89c 1cbd bfda c4bd f270 24bd 0fb7 96bc
000000c0: 99c0 0c3c 5db0 2fbd 32dc 7cbc 19b0 803d
000000d0: 8916 c03d 49cc 57bd eb3e 1abc ff51 953c
000000e0: 848d 96bc 6740 4abd 4bd7 1a3d 1f34 2dbe
000000f0: 1c97 1e3d 36c2 0fbe 0528 503e 4b91 863d
00000100: f5df 15be 958f 79bd 02bd e8bd 67dc 9b3d
00000110: 47cc 06bd 19a8 d5bc 7b15 923c deaf 483e
00000120: 1290 9c3c f14d 843d 82de 97bd 2ed1 3d3d
00000130: b1ae 013e c7e8 8cbd b0a3 133d c7a2 0fbc
00000140: fa50 d73d 671c b23d 190b 51bd 64e6 943d
00000150: f367 8fbd 5232 363e d5f6 c5bd c6bf 9a3c
00000160: 60a3 893d b255 2f3d 5827 02bd ee3c d1bc
00000170: 5c05 043e 06b6 0bbe e62e 2cbd eb2e cd3d
00000180: acac 49bd fb8e 373c 8572 9b3d 74f7 493e
00000190: 4b0f 37bd d170 b73d dade 57bd ae29 f43d
000001a0: 1450 923c 4d35 20bd 6034 87bd e613 0d3e
000001b0: 4a8c ddbd 0066 56bb 4626 80bd 4163 4abc
000001c0: 4f9a 54bd 4589 68bd e841 ca3c 956d 3dbc
000001d0: bb3e 3abe fe93 583d d49c 86be 2099 ae3d
000001e0: e313 c13d 4d70 223d 9a35 b23d e612 c9bd
000001f0: 33a8 f13d 3d31 b1bd ef14 803d 3642 0ebe
00000200: 5c52 08bd 91a5 bebc e238 563d 8069 0a3d
00000210: 2ab8 bf3c 0ff0 523d d188 2fbd 0d54 4abe
00000220: 45fd c23d 629e 293d 8ede 1bbd b6dc 3eb9
00000230: f10a f13d e922 2c3d 38c1 a2bd eccf 003e
00000240: 3224 073e 4f64 c83c 718e be3c 2008 b53d
00000250: 17a1 e83b 0248 ad3d 3e11 0b3e 0d04 ed3c
00000260: ffb0 8cbd 4107 c33d 31ea c43d 3be2 1dbe
00000270: cf1c 40bc ff73 b3bd 955a adbc bc63 10bd
00000280: 28e1 2d3c 9427 cc3d 4788 06bd 37ab 493c
00000290: dae5 c2bd d32f a7bd 24cc fdbd 9c49 c83d
000002a0: 1e48 07be 8a54 21bd d3fe f5bd 672c 20bd
000002b0: e881 b83c 63fb 3c3e e2b6 1dbe c03e 2c3e
000002c0: d316 3abe 0a33 72bd e517 0e3e a49a 96bc
000002d0: bea8 f5bb 9fbd bcbc da01 e43c 2451 fdbd
000002e0: 1fde 083e 20a8 c1bd 3a5d 983d c165 3dbc
000002f0: aad3 b0bd 5432 063c e560 a23d 4ab9 92bc
00000300: 211d 07bd 672f 0c3e 5049 8dbd 2bd2 ef3d
00000310: 816d 4c3d 4c66 ba3b 8014 87bd 8860 97bc
00000320: 2570 ecbd cc6f 3fbd 15a5 51bc 062c 5a3d
00000330: ff52 ba3c 7bb1 843d d567 0dbe 1800 1abe
00000340: 8eb2 05bd a635 d1bd 86a7 11be 875b 4c3d
00000350: 463a 0e3d ae2a 0bbe 226a a5bd 1ad7 f63d
00000360: e33a bfbd 62fc 933c cd98 0bbd 622a 34bd
00000370: bc0b b5bb 647f a53d 1eb3 e43d f4d5 b8bc
00000380: b8d9 383d 08c1 05b8 d03c 02bd c5db 8a3c
00000390: 1744 423d d350 47bd cab6 35be 9ad2 7f3e
000003a0: 929e 7fbd 6f33 e3bd 15e6 24bc 4b0d 1a3b
000003b0: 5247 de3c 2a5d b6bd 1d98 d43c 492f ddbc
000003c0: aab8 9bbc 1809 8ebd 6f0d c43d 85ea e13d
000003d0: 18f9 cc3d f370 6dbd 48ab f93d 0d33 cd3b
000003e0: e120 0dbc 9e02 febd d569 65bc 82d4 36be
000003f0: f42c 2e3e 4263 ec3c 8999 013d 66a5 47bc
-0.03956897 0.030829674 0.15478319 -0.13837855 -0.11691253 0.020868473 -0.061802734 0.112914756
-0.022376725 -0.07764091 -0.031073561 0.024805075 -0.03802852 0.038588922 0.13562457 -0.035096463
0.045676347 -0.0038280308 0.029721484 0.11373435 -0.05840869 -0.05296061 -0.10144407 0.027959833
0.00044980092 -0.031556472 0.01871161 -0.11336399 -0.1150855 0.09347086 -0.03459174 -0.045073137
0.09202185 -0.028302668 0.10407947 -0.19844574 0.13850921 -0.11126736 0.07744883 -0.042857505
-0.09926644 -0.14153486 -0.3025194 0.13453196 -0.038235337 -0.09612035 -0.040146776 -0.018397836
0.008590841 -0.042892803 -0.015433358 0.06283588 0.09379298 -0.052685056 -0.009414415 0.018227575
-0.018378027 -0.049377825 0.037802976 -0.16914414 0.038718328 -0.1403893 0.20327766 0.06570681
-0.14636214 -0.060927946 -0.113641754 0.07610398 -0.032909658 -0.026081132 0.017832508 0.19598338
0.019111667 0.06460179 -0.07415487 0.046342067 0.12664296 -0.06880336 0.036044776 -0.0087668365
0.10513492 0.086968236 -0.051035974 0.07270506 -0.070022486 0.17792633 -0.0966622 0.018890273
0.067206144 0.042806335 -0.031775802 -0.025541749 0.1289267 -0.13643655 -0.042036913 0.100187145
-0.04923694 0.011203523 0.07590202 0.19723302 -0.04469232 0.08957065 -0.052702762 0.11922012
0.01786045 -0.03911333 -0.066017866 0.13777122 -0.10817774 -0.0032714605 -0.062573 -0.012352766
-0.051904973 -0.056771535 0.02468963 -0.011561771 -0.18187992 0.05287551 -0.26291525 0.085253
0.09427621 0.03965788 0.0870163 -0.09818058 0.117996596 -0.086519696 0.06253993 -0.13892445
-0.03328167 -0.023272308 0.05230034 0.03379202 0.023403246 0.05149847 -0.042855088 -0.19758625
0.095209636 0.04141081 -0.03805404 -0.00018202033 0.11769665 0.04202548 -0.0794701 0.12579316
0.13197401 0.024461893 0.02326128 0.0883944 0.0070992815 0.08461 0.13580796 0.028932596
-0.06869697 0.09522868 0.09614981 -0.15418331 -0.0117256185 -0.08762359 -0.021161357 -0.035251364
0.010612763 0.099684864 -0.032844808 0.012308887 -0.09516497 -0.081634186 -0.12392452 0.09779665
-0.13211104 -0.039387263 -0.120114945 -0.039104845 0.022522882 0.18455271 -0.15401796 0.16820812
-0.18172769 -0.059130706 0.13876303 -0.018384285 -0.0074969223 -0.023039637 0.027832914 -0.12368992
0.13365982 -0.094558954 0.074396566 -0.011559905 -0.08634122 0.00819071 0.079286374 -0.017910618
-0.032986764 0.13689958 -0.06898749 0.11710008 0.04990912 0.0056884643 -0.06595707 -0.018478647
-0.11544827 -0.046737477 -0.012795706 0.05326464 0.022744654 0.06479164 -0.1380914 -0.15039098
-0.032640986 -0.10215311 -0.14224061 0.049891975 0.034723543 -0.135905 -0.08076884 0.12052746
-0.093374036 0.018064681 -0.03408127 -0.043985732 -0.0055250805 0.080809385 0.111669764 -0.022562958
0.045129508 -3.1889445e-05 -0.031796277 0.016950497 0.047428217 -0.048661064 -0.1774551 0.24982682
-0.062407084 -0.110937946 -0.010064621 0.0023506458 0.027133618 -0.089044884 0.02595144 -0.027000086
-0.019008953 -0.06935328 0.09572875 0.11031059 0.10008448 -0.057969045 0.121908724 0.0062621892
-0.008613796 -0.12402843 -0.014002283 -0.17854503 0.17009336 0.028855924 0.031640563 -0.01218543

bnorm_1.weight f4 [16]
00000000: 6a71 923f 9d8a 6d3f 7541 863f bc0f 7a3f
00000010: da5d 813f ec71 803f 4198 873f 08ea 653f
00000020: cea6 773f cdcc 873f ba21 6f3f fc01 7c3f
00000030: 59a3 883f 6138 843f 0c61 7b3f 61ae 7b3f
1.1440861 0.9278963 1.0488726 0.9768026 1.0106766 1.0034766 1.0593339 0.8981023
0.967389 1.0609375 0.9341084 0.9844053 1.067485 1.0329705 0.98194957 0.98312956

bnorm_1.bias f4 [16]
00000000: b981 23be 3f33 c6bd 91f8 72bd ab6d 9fbd
00000010: 1ccd c0bd 24fd a73c eaf1 b1bc 52f9 afbd
00000020: ddd2 d6bb 6817 8bbd 3dab 8dbd e1e3 f9bc
00000030: 4603 8abd 0a59 35be c988 01be ca68 74bb
-0.15967454 -0.09677743 -0.059319083 -0.077845894 -0.094141215 0.020506449 -0.021721799 -0.08592476
-0.0065558986 -0.06791574 -0.06917427 -0.030504169 -0.067389056 -0.17709747 -0.12649836 -0.0037293904

bnorm_1.running_mean f4 [16]
00000000: 30b7 003a 020f 13bb 1344 b2ba 9502 77b8
00000010: f7f1 c93a a4b8 08bb cecc d9ba e660 da3b
00000020: e081 803b 39f0 6d3a ce78 f4bb f640 223c
00000030: 2be4 a339 66f3 9b39 f5f4 1f3b 61b1 8c3b
0.00049101096 -0.0022439365 -0.001360061 -5.8891794e-05 0.0015407194 -0.0020862008 -0.0016616823 0.006664383
0.0039217323 0.00090766285 -0.00746069 0.009903183 0.0003125978 0.0002974525 0.002440748 0.004293606

bnorm_1.running_var f4 [16]
00000000: 7f67 ec3b 692b 563d ff7c 9a3c eb66 d23c
00000010: 8344 023d d53a 723d edd3 a63c 985e 753d
00000020: 78f6 f63c 6d2b c33c e8dd 463d 4281 7a3e
00000030: f233 2b3d 0b03 673d b5d1 a63c 2f39 7d3d
0.007214486 0.052287493 0.01885843 0.02568384 0.03180362 0.059138138 0.020364726 0.059904665
0.030146822 0.023824418 0.04855147 0.2446337 0.041797586 0.056399386 0.020363668 0.061822113

conv_separable_depth.weight f4 [16, 1, 1, 16]
00000000: 5a1d 6f3d d62e 103e b079 8c3d b73c f43d
00000010: 72b5 1b3e 6827 2f3e dd90 a83d 4089 febd
00000020: 1044 8bbe 11df d2bd 913b d8bd 95cd 85bd
00000030: 0538 aabc 3554 0e3c 9527 e73c e580 093e
00000040: 6bde fdbc 81e4 87bc dd9b d43d 1c89 74bc
00000050: 1124 863c e9e0 903c 94f8 b33d 8203 babd
00000060: 0416 48bd 69e9 cb3d 61a2 c73b 7ef0 a339
00000070: 9bf3 0abd 0b7a b4bd 90bc 95bc 8171 12be
00000080: 0fdb 173e be89 fb3c 137d da3d 1e3b e93d
00000090: 9c33 7c3c ef0a dbbd ef18 f53c 4e93 9abd
000000a0: ffae abbd 0af3 9dbd 190f c8bd 3049 f23c
000000b0: afe4 21bd 86f3 b13c 68fa 01be 707b 33be
000000c0: 88b3 0e3e 8d63 163e 9f8e 8ebc 7587 b9bd
000000d0: ad91 b3bd 5d00 25bd 4477 8cbd c739 bbbd
000000e0: d5d0 07bd 21fd e6bd 4e09 c7bd d138 013d
000000f0: 02df 0e3e 25e2 6c3d 427e 283c 8920 f13d
00000100: c7d3 a2bd 7e35 29bd 73a0 c93d 54d3 d6bc
00000110: 9c41 d53c 4b03 eabd 86c9 e93d be2b adbd
00000120: 5452 8f3d 93ec cd3d d8c2 d93d 2b03 293d
00000130: 778c 2bbb 77ef e43d ff9b 0f3d 3a1f 3f3d
00000140: ad27 bcbd c261 d43d 1ed8 323c f1c6 903d
00000150: faef fa3c a57d c83d 9001 99bd f9a7 4abd
00000160: c68c 4cbd a583 f33d 5780 583d 979c 7139
00000170: 5936 af3d c372 f13d f32f b13c b22b f73d
00000180: f7a8 143e a38a b23b 3204 353a 4496 d8bd
00000190: ceea bf3b ad20 1d3c b92d 1d3d 3a27 09be
000001a0: 56cb 523d 9d0a 90bd ac4b 643d 143b e9bb
000001b0: db19 94bc fb70 05be ea85 1dbe 72e2 f7bd
000001c0: 15e2 aabc b459 debd 7e7e 213d b8a3 c03c
000001d0: 596b 4dbc 359a 073e 9fed acbd 9dd7 493d
000001e0: a770 7f3d fd2e 1cbd a41c 893d 9e08 33bd
000001f0: c88b 643d 022d 783d b16e 4fbc 4d06 e8bd
00000200: c1dd 09be ff40 1abd 98ba c3bd 1f7b b2bd
00000210: 78cd 6bbc bf16 54bc f803 5c3c bf91 253e
00000220: 93b2 3fbd 85c9 3a3e 9f35 0a3d 1533 743c
00000230: fe49 813d ca5b 193c bad3 a0bd 4b01 a2bd
00000240: 1cb1 453d 556d d7bc 3d69 24be 879b 38be
00000250: e297 79bd 4a28 13bc 4769 f9bd 67ab 4ebd
00000260: ba25 153d 79db ff3d 232b b23d ddba 043d
00000270: 8a42 a5bc b475 e83a 0e95 2cbc c214 29bd
00000280: c2a6 cebd 69ab 56bd 8488 e43d 83fd c43c
00000290: 43a7 ce3d e5b5 e53c cff5 b9bc 0451 113d
000002a0: e683 d23c 1fde 1ebd ff1b ab3c 5748 613b
000002b0: 203a 71bc 2836 923d 815b c8bd dfb6 093d
000002c0: 8b62 e93c b990 023c aa6b 9c3d 6435 d3bd
000002d0: a886 b1bd c07f 533d 890a 223d 7120 953d
000002e0: d157 cf3c 7aff 443d 3cfd 84bd 1944 4ebd
000002f0: 0c1a c3bd 2c78 84bd 3552 10be 744e 8a3b
00000300: 723c 43bd 7db8 b5bd 7dec f0bd 21f0 963a
00000310: bfe2 4ebb 0eb3 fa3c 5b5e e23d 5597 a43b
00000320: dfa1 893d 7316 923d da4a b03d 4db2 a53d
00000330: 2942 983d a048 e2bd 3184 2dbe 2123 0cbe
00000340: 49ea 0cbe 578c 0abe bcc2 a4bd 3b24 9d3c
00000350: a1db c6bd e07f 8f3d 4e05 c3bd fd90 89bd
00000360: bd48 cabd 27d7 bfbd cb4b d5bc 4bf7 9cbc
00000370: b4d5 003e f286 99bd d081 fa3d e7f9 66bd
00000380: 3ae1 0dbe 1f8b 1abe 7557 06bd 3b9e 763d
00000390: 66a8 febc 24d4 81bd a34e f6bd 1cb8 aebd
000003a0: f35c 84bc 59a2 bbbc cc0c 84bd a275 af3d
000003b0: 59b6 05bd 6d5c db3d 5e27 863d f5c1 973d
000003c0: bb77 853c 5727 cb3d 42ff 34bc 728c 1dbe
000003d0: d4bb 08be 4389 f8bd abda 9e3d 8122 ebbd
000003e0: f1bd 0e3e 4736 06bd 39c3 293e f906 f3bc
000003f0: 82b5 42bc c52c 9e3d 50bd 03be cdc3 bbbd
0.0583776 0.14080366 0.068591475 0.11925643 0.15205935 0.17104876 0.082307555 -0.12428522
-0.27200365 -0.10296453 -0.105582364 -0.06533352 -0.020778665 0.008687069 0.028217116 0.13428076
-0.030989846 -0.016588451 0.10381291 -0.014925268 0.01637462 0.01768537 0.08787647 -0.090827
-0.04884912 0.09956629 0.006092355 0.00031268963 -0.033923727 -0.0881234 -0.01827839 -0.14301111
0.14829658 0.030705329 0.10668387 0.11388229 0.015393164 -0.10695445 0.029919116 -0.075476274
-0.08382987 -0.07712372 -0.09768505 0.029575914 -0.03952473 0.021722566 -0.12693179 -0.17527556
0.13935673 0.14686413 -0.017401991 -0.090590395 -0.0876802 -0.04028355 -0.068586856 -0.091418795
-0.033158142 -0.11278749 -0.097185716 0.031548325 0.13952258 0.057832856 0.010284008 0.11773784
-0.079505496 -0.04131078 0.098450564 -0.026223816 0.026032262 -0.11426409 0.11415391 -0.08455609
0.06998125 0.100548886 0.106328666 0.041262787 -0.0026176253 0.11178487 0.03506088 0.04666064
-0.09187255 0.10370208 0.010915784 0.07069195 0.030632008 0.0978959 -0.07471001 -0.049476597
-0.04993894 0.118903436 0.05285677 0.00023041885 0.08555288 0.11789467 0.02162931 0.12068881
0.1451758 0.0054486557 0.0006905227 -0.10575536 0.0058568483 0.00959031 0.038373683 -0.1339387
0.051463448 -0.07033274 0.05573623 -0.0071176384 -0.018078735 -0.1303138 -0.15383115 -0.12103738
-0.020859757 -0.10856953 0.039427273 0.023515567 -0.012537801 0.13242419 -0.0844376 0.04927789
0.062363293 -0.03813075 0.06694916 -0.04370939 0.05579737 0.060589798 -0.012660668 -0.11329327
-0.13463499 -0.03765964 -0.09557074 -0.0871489 -0.014392249 -0.012944876 0.013428681 0.16168879
-0.04680116 0.18240936 0.033742543 0.014904757 0.06312941 0.009360263 -0.07852884 -0.07910403
0.048264608 -0.02629725 -0.1605577 -0.18028079 -0.060935862 -0.008981774 -0.12178283 -0.05045643
0.036412932 0.12493033 0.08699634 0.03240477 -0.02017333 0.0017735274 -0.010533584 -0.04127956
-0.100904 -0.052409563 0.11158851 0.024046665 0.100904964 0.028040836 -0.022700218 0.035477653
0.02569766 -0.03878605 0.020887373 0.0034375393 -0.014723331 0.07139236 -0.09783078 0.033621665
0.028489372 0.007969075 0.07637723 -0.10312918 -0.08668262 0.051635504 0.03956083 0.07281578
0.025310429 0.048095204 -0.06493613 -0.05035791 -0.095264524 -0.064682335 -0.1409386 0.004220778
-0.047665067 -0.08873079 -0.117638566 0.0011515656 -0.0031568257 0.030602958 0.11053153 0.005022923
0.067203276 0.07133188 0.08608027 0.08090649 0.07434494 -0.11049008 -0.16944958 -0.13685276
-0.13761248 -0.13530098 -0.08044955 0.019182315 -0.0970986 0.07006812 -0.09522496 -0.067171074
-0.09877155 -0.09367209 -0.026037117 -0.019160887 0.12581521 -0.07496442 0.12231791 -0.05639067
-0.13855448 -0.15092133 -0.03279825 0.060209494 -0.031086158 -0.06339291 -0.120267175 -0.0853121
-0.016157603 -0.022904562 -0.06447753 0.085673586 -0.032644603 0.10710988 0.065504774 0.07410041
0.016292443 0.09919613 -0.011047186 -0.15385607 -0.133529 -0.121355556 0.07756551 -0.114811905
0.13939644 -0.032766607 0.16578378 -0.02966641 -0.011884095 0.07723383 -0.12865186 -0.091682054

conv_separable_point.weight f4 [16, 16, 1, 1]
00000000: a79c 55bd c08c f23d d66c bfbe a570 b33e
00000010: d702 a3be 810a bc3e a78c d4be 2cc2 b83e
00000020: cdc8 883e 249d d43d 5de3 b43e 65fd 643e
00000030: 04b6 9bbe ef4d 44bc 76fc 513d 7961 bc3e
00000040: 14d6 73be ca13 073e 1928 a23e 5ff5 64bd
00000050: 0248 e7bd f0e9 053e f61a c0bd 6d3a 99bb
00000060: c012 903d 45a2 a03e 9564 60be 899e b53e
00000070: ea12 e3be 20e8 6cbd 0458 95be 1fdc da3e
00000080: 50d9 a1be bf2f ee3d ffff f03d 044f a3be
00000090: 4105 443d e585 a8be cccc 6f3e a2ad 9dbe
000000a0: 07c3 b83e d1ad 973e 4568 c83c 3acd be3e
000000b0: dadb 98be 7893 d33d e25a 8f3e ce58 9f3e
000000c0: bcb2 38bb 6cfc 99be 9036 cbbd 2ae4 653e
000000d0: 0901 71be 3289 1c3e a28d 96be a53b cb3c
000000e0: d035 2f3e 549a 40be 9bdb 4d3e 43ac a7be
000000f0: ae19 d73d 3e95 083f 3810 f63d 4521 9b3e
00000100: 1330 b23e 0c84 acbe a4f0 adbb edfb 243e
00000110: e4e9 a83e a9db b53c b5ab 8fbe 9f48 d3bd
00000120: fd61 94be be2b b1be 2521 1d3b a686 5d3d
00000130: f14a e5bd f216 8bbe e2ed d23e 3f1f acbe
00000140: 93b4 c1be 51b8 a33e 7495 923e ed38 19be
00000150: 3495 7dbd 8fea 063e b733 9f3e b314 b83d
00000160: dc4e 93be 8c79 88bb 955d ac3e 78fd 333e
00000170: 0fcc e3bd 3b4f b73e d895 9ebe 2806 69bd
00000180: 34b0 74be dc67 5b3c 5020 3fbb a05a 67be
00000190: 8432 bb3e db58 b9be 17a8 3dbc 5716 003f
000001a0: a50c bdbe e9ae 85be 184c 86bc d6e2 5abb
000001b0: 5b6f efbd a7dd bfbe a5d8 833d d553 37be
000001c0: 5664 87be 59ee c43c 1a09 a93e eeaf 92be
000001d0: c494 153d 51f5 00bf 587e 733e 3665 9fbd
000001e0: a7b4 37be 96c0 df3d d15e a9be 94bb e53e
000001f0: cf35 0a3e 8030 a7be 50b0 7abe 5def 29be
00000200: 424d 453e e3ee 9dbe 94cf 64bc 75af 39be
00000210: 0af8 ab3e 5389 853e 7125 c93e 9e13 673e
00000220: 57c6 b2be 881b cfbe 3227 83be 9f75 2bbe
00000230: 2b98 c13e e6c6 b5be 644b 003f b6cf 79be
00000240: b66c ef3e 74df e03d 3480 fb3d 64b7 943e
00000250: 3b0b 8cbe 6db8 2d3e 3c95 b3be 1ee8 943e
00000260: 0079 96bd b952 c4be 54a3 ca3e b1a5 093e
00000270: c373 cfbd 3310 993e 40f2 83be 7f63 7fbe
00000280: b507 debe 1726 95be 6085 e5bd 816a fcbe
00000290: d5da c1be 104d c03e 9595 423e 548c 91be
000002a0: df97 3b3e b6a7 b43d 0e48 73be a52e a03d
000002b0: 787c 853d b0ea ae3e f012 d0bd 430a b33e
000002c0: 4a3f fd3d 01cf 73be f72e ff3e 423e adbe
000002d0: 4918 963e c6b2 a8be 1e2c 8bbd 18eb 70be
000002e0: c8dd ba3d 368d d7be 68c5 0cbe e154 8bbc
000002f0: 8fcd abbe 60c0 c53e bdfa 743e 8ee8 6fbe
00000300: f7dc 8abe 4ce2 a93e 9ce4 e83e cc14 5fbe
00000310: 640d 353c 8d0a f53b e41c 8e3e 4b95 1a3d
00000320: 6c72 463e 0f6d 37be 0e13 a33e 2ea0 59be
00000330: a344 25be f57b c53e 8801 863e 6b35 4cbe
00000340: 3283 893e a615 9ebe fc92 b63e ba31 3e3e
00000350: 27a6 5c3e d1fe 27be b28e 0f3e 33c0 c8be
00000360: 2948 483c 4f7c ffbe 3353 bb3d 3158 cc3d
00000370: 8b53 4fbe ad20 5fbe dab0 a63e c1e7 9abe
00000380: b8c7 da3d ba5a 9bbd bb30 d53e 975f 67bc
00000390: e7ed dcbd c84b 2cbe b6cd eabb 857d 71be
000003a0: 8212 673e 43d4 b7be b943 8fbe aa46 af3d
000003b0: 3358 ccbe 02bf 1e3e aff9 b43e 69ea aabe
000003c0: 53ff a4be 0693 05bb 775a 6c3c 246e 48be
000003d0: 1e78 4dbe 82cf f93c 6c49 b53e 3a8a 29be
000003e0: 2f7d 403e 4e25 943e de81 f9bd cd5c cd3e
000003f0: 99fc 5d3e b83a 04be 9558 dd3d 89f2 b4bd
-0.05215135 0.11843252 -0.37387723 0.35046878 -0.31838104 0.36726764 -0.4151356 0.3608564
0.267157 0.10381535 0.35329714 0.22362287 -0.30412304 -0.011981471 0.051266156 0.36793116
-0.23812133 0.13191143 0.31671217 -0.055898067 -0.11293031 0.13077521 -0.093801424 -0.0046761543
0.07034826 0.31373802 -0.21913369 0.35472515 -0.44350368 -0.05783856 -0.29168713 0.42746064
-0.3161111 0.116302006 0.117675774 -0.31896222 0.047856573 -0.32914653 0.23417968 -0.30796534
0.36086294 0.296248 0.024463782 0.3726595 -0.29855233 0.10330862 0.27999026 0.3112244
-0.0028182706 -0.30075395 -0.09922516 0.22450319 -0.23535551 0.15286711 -0.29404932 0.024808714
0.17110372 -0.18808872 0.20103304 -0.32748613 0.10502945 0.53352726 0.12014812 0.3029882
0.34802303 -0.33694494 -0.0053082276 0.16111727 0.32990944 0.022199469 -0.2806069 -0.10316586
-0.2898101 -0.34603685 0.0023976055 0.05408349 -0.111959346 -0.27165943 0.41197115 -0.3361759
-0.3783308 0.3197656 0.2862965 -0.14963122 -0.06190987 0.13175415 0.31094143 0.08988323
-0.28771102 -0.00416488 0.33665147 0.1757716 -0.111229055 0.35802636 -0.30973697 -0.056890637
-0.23895341 0.013391461 -0.0029163547 -0.22593164 0.36561978 -0.36200604 -0.01157572 0.5003409
-0.3692371 -0.26110008 -0.016393706 -0.0033399365 -0.11691161 -0.37473795 0.06437806 -0.17903073
-0.26443738 0.024039434 0.33014756 -0.2864985 0.036518827 -0.50374323 0.23778665 -0.07782976
-0.17940007 0.10925405 -0.33080152 0.44869673 0.13497089 -0.3265419 -0.2448132 -0.16595216
0.19267753 -0.3084632 -0.013965506 -0.18133338 0.33587676 0.26081333 0.39286378 0.22566077
-0.34916946 -0.40450692 -0.2561584 -0.16744088 0.37811407 -0.3550331 0.50115037 -0.24395642
0.46762627 0.1098012 0.12280312 0.29046166 -0.27352318 0.16964884 -0.35074794 0.2908334
-0.07347298 -0.38344362 0.39577734 0.13442113 -0.10129502 0.29895172 -0.2577076 -0.24940298
-0.43365255 -0.29130623 -0.1120708 -0.49300006 -0.37862268 0.37558794 0.19002374 -0.28427374
0.18319653 0.08821051 -0.23757955 0.07821397 0.06517881 0.34163427 -0.10159862 0.34968767
0.12365587 -0.23809434 0.4984052 -0.3383656 0.29315403 -0.32948893 -0.06795524 -0.23527181
0.09124333 -0.42099923 -0.1374718 -0.017008247 -0.33555266 0.38623333 0.23923774 -0.23428556
-0.27121708 0.33180463 0.45486915 -0.21785277 0.011050556 0.0074780644 0.27756417 0.037740033
0.19379586 -0.17912696 0.31850475 -0.2125251 -0.16139464 0.38571134 0.26173043 -0.19942252
0.26857907 -0.3087589 0.35659015 0.18573657 0.21547757 -0.16405798 0.14019278 -0.39209136
0.012224236 -0.49899527 0.09146728 0.09977759 -0.20246713 -0.21789809 0.32556802 -0.3025494
0.106826246 -0.07585664 0.4163874 -0.0141219115 -0.10787564 -0.16825783 -0.007165636 -0.23583038
0.22565654 -0.3590413 -0.27981356 0.085584 -0.3991104 0.15502551 0.35346743 -0.33381966
-0.32226047 -0.0020381822 0.014425865 -0.19573265 -0.20065352 0.030494455 0.3540758 -0.16556635
0.18797754 0.2893471 -0.12182973 0.40109864 0.2167839 -0.12913024 0.10807911 -0.088353224

bnorm_2.weight f4 [16]
00000000: f8a2 8b3f 8941 8d3f 2613 9c3f 5e56 863f
00000010: cac3 9f3f 47cd 9b3f 03a5 8f3f b863 853f
00000020: 568b 813f 0766 a23f cc90 9f3f d3e7 a23f
00000030: 98db a03f ef9a a73f 4168 9a3f f836 8f3f
1.0909109 1.1035625 1.2193344 1.0495107 1.2481625 1.2172021 1.1222233 1.0421057
1.0120647 1.2687386 1.2466063 1.2726997 1.2567015 1.3094157 1.2063066 1.118865

bnorm_2.bias f4 [16]
00000000: 03a9 c1bc 253e c5bc 5a47 a8bd 93ae bebb
00000010: c629 eb3c 5442 23bd b2e4 5bbc 4621 e3bc
00000020: 8401 1e3d 379c 4b3d 3a4a c6bc 458e ff3a
00000030: 938a d53c 8228 073d f163 2cbd d642 94bc
-0.023640161 -0.024077484 -0.08216734 -0.0058191507 0.028706443 -0.039858177 -0.013421224 -0.027725827
0.038575664 0.049709525 -0.024205316 0.0019497356 0.026067054 0.032997616 -0.0420875 -0.018098276

bnorm_2.running_mean f4 [16]
00000000: e08f 123d 0529 07bd 1151 d1bd 85bb 8a3c
00000010: 5390 8f3d 94d7 05bd b206 2d3c 4109 91bd
00000020: bdc2 433d 1848 643d bbe3 c6bc ab40 97bc
00000030: 30be 14bd 683b 1b3c 2e72 abbc 8cf3 70bd
0.03578174 -0.032998104 -0.1022054 0.01693512 0.070099495 -0.032676294 0.010560678 -0.07081843
0.04779314 0.055732816 -0.024278512 -0.018463453 -0.03631419 0.009474613 -0.020928469 -0.058826014

bnorm_2.running_var f4 [16]
00000000: fae2 ed3d e7d1 f43d 9b9e 343e 886e ad3d
00000010: af76 2e3e 0605 ff3d b41a 063e 2972 143e
00000020: aa2a 373e 5f3d 543e f464 5c3e 42a4 2e3e
00000030: f4bb 023e 408d 233e c46b f13d 6c0e e73d
0.11615558 0.11954098 0.17638628 0.08468348 0.17037462 0.1245213 0.13096124 0.14496674
0.17887369 0.20726536 0.21522886 0.17054847 0.12767011 0.15971851 0.11788133 0.11282048

final_layer.conv_classifier.weight f4 [2, 16, 1, 18]
00000000: a7ab 09be 6a83 99bd 95db 853d 8f48 83bd
00000010: a2a3 93bc bf2c b0bd 6ace ff3c 0861 153e
00000020: 5650 c7bd b3e0 b5be e852 16be d84f 09bd
00000030: ec60 c0bc 2415 e2bd aa8d eb3c ab62 513d
00000040: f953 8b3c 0943 78bd 7369 dabd 5b8e 953c
00000050: 8b71 de3c 7b94 dabc 5b1b 663d 797e 55bd
00000060: 6fe7 e6bc 4b5d 3d3e 4836 85bd 3137 0fbe
00000070: 60ec b2be 6eca e13d 5a7c 9ebd d705 e1bc
00000080: 828d 0d3e 647f 993d 8f33 d0bc 12b5 26be
00000090: a605 13be 32c5 e8bc 9011 2dbe ee49 623d
000000a0: 229e 533d 64c9 4b3d b185 eb3d 6631 803d
000000b0: f6fa 15bd 2bcd 723e af9d 2abe caa1 883e
000000c0: 3c7c 713d 325e 34be ec47 dfbd 8353 35bd
000000d0: 92e8 0bbe bb6a bbbc 3ae1 29ba 6660 a33c
000000e0: 3515 15bd 217d 81bd c99e e0bb 6379 c33d
000000f0: dc75 2bbd a865 393d f75e 08be 71cd 11be
00000100: 1859 473d af89 babc e0ed 663c 6ff5 07bd
00000110: eb0e 233e 19f7 143e 0316 813d d566 163e
00000120: 2830 9abb 51a7 bb3d 713f 2e3d 9e28 1c3e
00000130: 682d aa3d a242 dfbc 296c f7bd 3467 883d
00000140: be19 afbd 7b56 983c 2aeb bc3e 3788 d9bb
00000150: b8e5 6dbd 4319 613d 6897 c1bd 1f62 8e3c
00000160: 2414 7d3c f82a 503d 8794 62bd 42a9 0cbe
00000170: 71c7 4d3c c350 4f3b f448 80bd f21b d93d
00000180: 9b13 2dbd 9bbc c6bd e204 e4bc 23ea 0e3d
00000190: a347 45be f7e0 883d 0112 93bc ae17 513e
000001a0: 60b4 803d 8f6d c3bd 907c 2e3e 4d6c bf3c
000001b0: 0df0 4e3e 2e1e 143d a602 80bc 6452 e43d
000001c0: b30f a9bd 80cc a9b6 02ca c73d e658 b3bd
000001d0: 54dc c53d e3f9 c53d 5493 233a f416 d93d
000001e0: 5899 113d 222d 82bd bbb0 42be 5666 26bc
000001f0: a13a 41be 559a 19be 1b99 b4bd b0c9 86bd
00000200: 189b 2cbe b32d a6bd 8aca 5f3d 2b21 dcbc
00000210: d333 8c3c 0519 b73c 5fc9 723d 9a12 7a3c
00000220: 326b bebd 3c6a c13d 451f 76b9 9f44 d8bd
00000230: 4e60 39bd a3e6 88bc 1f49 b6bd 794d 36be
00000240: 6bf3 db3c e3e6 5b3d ff15 cc3d b99a b93c
00000250: fc77 b43d f497 233d 2fe4 943c 5fb8 4b3c
00000260: 303a 1a3e b70b 733d 5dd4 413e a378 12be
00000270: e79d 99bd 1265 34bd 61ed 5dbd 70bb bebd
00000280: dc6b 9cbd aecf 953c 3f5a 0ebe a1da aebd
00000290: 7f1b 0d3e 2520 003e d4b8 653d 702a 94bb
000002a0: 7a30 843d b0b0 df3b ea85 91be 5991 3ebd
000002b0: 3c30 663e 0eee 75be 3905 36bc 8d05 823e
000002c0: 52ff cdbd 9f4b 423e 9521 3b3e 744d 353c
000002d0: ea5f 88bd f98f b13a feb3 44bd e952 903d
000002e0: 5fcb 3f3c d125 aabd 34e6 5cbd f7bd 653c
000002f0: a63e a4bd b1db c9bc 739f a6be 3851 273c
00000300: c713 633d 327c 393b b3c4 f83d d7cf febb
00000310: cbf0 d43d bee0 293e 4b25 16bb 91c6 7fbd
00000320: 156b 533d bef5 8c3c f3cf 18bc a4db 2a3d
00000330: c664 25bc 5296 d7bd 0f5b 3cbe 60c9 953e
00000340: a8fb c93d 721a debd 22ab 37bd a547 943d
00000350: ae62 30be 9b42 2b3d 0585 bc3d 5624 643d
00000360: b0c9 a7bd 1266 1ebd 9637 e03c 84ab b13d
00000370: f34b ba3c 740d 9dbc df33 06be 6538 3f3d
00000380: aa88 51bd cdf2 833e e483 77be a417 e33c
00000390: 4bf9 323e d32c 5a3d df19 dcbd 06ea c0bd
000003a0: 9f1b e33d 74e4 023e f003 a13c 9f68 01bc
000003b0: a7d2 f73d 3529 5bbd a473 fd3c dab7 40bc
000003c0: 2e2d bf3b 7003 8b3b d02b 043c 65e2 493e
000003d0: 548f 9e3e b34d 5ebe 02e0 b3bc 1c09 2bbd
000003e0: eea1 29be 7ca8 1ebe 6217 d6bd a760 15bb
000003f0: bf11 0bbb b644 07bd b709 6dbd 5663 c83d
-0.13444386 -0.07495768 0.065360226 -0.06410324 -0.018022362 -0.08602285 0.031226356 0.14587796
-0.0973212 -0.35522994 -0.14680064 -0.03352341 -0.023483716 -0.110391885 0.028754074 0.051119488
0.017007815 -0.060610805 -0.10664644 0.018256357 0.02715375 -0.02668213 0.056178432 -0.052122567
-0.028186528 0.1849262 -0.06504494 -0.13985898 -0.34945965 0.110249385 -0.07738562 -0.027468605
0.13823512 0.07495001 -0.02541521 -0.1628001 -0.14357623 -0.028414343 -0.16901231 0.055246286
0.05166448 0.049752608 0.11500109 0.06259422 -0.036616288 0.23711078 -0.16661714 0.26685935
0.05895637 -0.17614058 -0.1090239 -0.044269096 -0.13662937 -0.022878041 -0.00064804 0.019943427
-0.036397178 -0.063226946 -0.006854866 0.09544637 -0.041860446 0.045262963 -0.13317476 -0.14238526
0.04866895 -0.02277073 0.0140948 -0.033193048 0.1592366 0.14547385 0.063030265 0.14687665
-0.0047054477 0.091627724 0.04254097 0.15249869 0.08309442 -0.027253453 -0.12081177 0.066603094
-0.08549832 0.018595925 0.36898166 -0.0066385525 -0.058080405 0.054955732 -0.094527066 0.017380772
0.015446696 0.05082223 -0.055317428 -0.13736442 0.012559758 0.003163383 -0.06263915 0.10601033
-0.042255025 -0.097039424 -0.02783436 0.03489126 -0.19265608 0.06683534 -0.01795292 0.2041919
0.06284404 -0.09542381 0.17039704 0.023367072 0.2020876 0.036161594 -0.015626263 0.11148527
-0.082549475 -5.0603994e-06 0.09755327 -0.087571904 0.09661165 0.09666803 0.000623991 0.10600081
0.03554663 -0.06356265 -0.1901273 -0.010156235 -0.18870021 -0.15000279 -0.08818265 -0.065814376
-0.16856039 -0.08114185 0.054636516 -0.026871284 0.017114555 0.022350797 0.059274074 0.015263224
-0.0929779 0.09444091 -0.00023472037 -0.105599634 -0.04525786 -0.016711539 -0.089006655 -0.17802991
0.02684947 0.053686988 0.09965133 0.022656785 0.08811948 0.039939836 0.018175213 0.012434094
0.1506126 0.059337344 0.18928666 -0.14303832 -0.075008206 -0.0440417 -0.05418146 -0.093130946
-0.0763776 0.018287506 -0.13901614 -0.08537794 0.1378002 0.12512262 0.05608447 -0.0045216605
0.06454559 0.0068264827 -0.2842248 -0.046525333 0.22479337 -0.24016592 -0.011109644 0.2539486
-0.10058464 0.1897416 0.1827453 0.01106583 -0.06658919 0.0013546936 -0.048023216 0.07047064
0.011706202 -0.08307994 -0.053930476 0.014022342 -0.08019762 -0.02464089 -0.32543525 0.010212235
0.055438783 0.0028302786 0.121468924 -0.0077762413 0.1039749 0.16589639 -0.0022910412 -0.062445227
0.051615793 0.017207023 -0.009326923 0.041713372 -0.010094827 -0.10526718 -0.18394111 0.292552
0.09862453 -0.10844888 -0.04484094 0.072402276 -0.17225143 0.041811567 0.09205059 0.055698715
-0.08192766 -0.03867156 0.027370255 0.08675292 0.022741294 -0.019171454 -0.13105725 0.04668464
-0.051155724 0.2577118 -0.24171406 0.027721234 0.1747791 0.053265404 -0.10747122 -0.094196364
0.11089253 0.1278246 0.019655198 -0.007898479 0.121007256 -0.053506095 0.03093893 -0.011762584
0.0058342433 0.004242353 0.008067086 0.19715269 0.30968726 -0.21709327 -0.021957401 -0.041756734
-0.16565678 -0.15493959 -0.10453679 -0.0022793205 -0.0021220294 -0.033024512 -0.057870593 0.09784572

final_layer.conv_classifier.bias f4 [2]
00000000: b6f9 b63c abf9 b6bc
0.022335868 -0.022335848
