left-right/eegnet_model.pth (torch, 17003 bytes, 18 tensors)

conv_temporal.weight f4 [8, 1, 1, 100]
000000 ef 0a 90 ba d2 09 87 3d 5f 48 22 bd 05 01 2a bd
       -0.0010989587 0.0659367 -0.0396198 -0.04150488
000010 45 e8 7b bd e0 02 80 bc ec b1 18 3d 04 ac bf bd
       -0.061500806 -0.01562637 0.037279055 -0.09358981
000020 75 df 43 bd 4b b0 92 bd 81 1d 0d bd 87 a4 1e bd
       -0.047820527 -0.071625315 -0.034451965 -0.038731124
000030 4a 61 77 bd 8e c7 c8 3c ef 50 9b bc ba 31 62 bd
       -0.060395516 0.024509218 -0.01895949 -0.055223204
000040 6c b1 b5 bc cd d4 b6 bc a0 46 3c bb bd 41 0d 3d
       -0.022179328 -0.022318268 -0.002872862 0.03448652
000050 57 c5 3b bd a3 01 36 bd 43 72 79 bd 63 95 70 bc
       -0.045842495 -0.044435155 -0.060899984 -0.014684054
000060 d2 97 d1 bc a8 46 6e bd 60 31 94 3d f6 41 27 bd
       -0.025585089 -0.05817285 0.0723598 -0.04083439
000070 8d b2 34 3d d8 d3 0c 3d 82 54 04 3b a3 ad ba 3d
       0.04411559 0.034381717 0.0020191972 0.0911515
000080 82 6d 27 bd ba 59 8c 3d d6 77 c7 3d 66 c4 71 3c
       -0.04087592 0.068530515 0.09739654 0.014756298
000090 35 84 5e 3d 8f 1e 13 3c 3c 2c a0 3c 7e 50 94 3d
       0.0543253 0.008979454 0.019552343 0.07241915
0000a0 28 78 e3 3d 6b dc 18 bd cd 39 c5 bc 9f e0 e8 3c
       0.11106902 -0.037319582 -0.024075413 0.02842742
0000b0 2e aa 41 3d 2f 06 90 3d af f9 b8 bd 63 21 52 bc
       0.047281437 0.070324294 -0.09031998 -0.012825343
0000c0 3c 0b 0c bd 4e 1c c8 3c 29 11 d4 bd be d2 ba bd
       -0.0341904 0.02442756 -0.103548355 -0.09122227
0000d0 76 5f 13 bd f2 fd 57 bd fc df 6f 3d 43 0b 88 3d
       -0.03597971 -0.052732415 0.058563218 0.06642773
0000e0 53 ee 98 bd 84 15 98 bd 23 90 8a bd da d6 b7 3c
       -0.07467332 -0.07425979 -0.06765773 0.022441316
0000f0 e3 cc bf bc af 50 01 bc d7 a6 af bd b6 e2 98 3c
       -0.023413127 -0.007892772 -0.08576744 0.018662792
000100 f5 36 4b 3d 22 56 24 bc 2a a4 a6 3c d3 cd 93 bd
       0.049612958 -0.010030301 0.020341951 -0.07216992
000110 15 11 81 bd db c8 bc 3c c9 12 73 bb ac 68 9d bc
       -0.06302086 0.023044994 -0.0037090054 -0.01921495
000120 06 27 b7 3a 77 ef 8f 3d 1a 6a c1 bc 39 15 30 3c
       0.0013973422 0.07028096 -0.023610163 0.010747247
000130 88 e0 d3 3c 48 f4 f2 3c 02 de a6 3c 97 86 5e 3c
       0.0258639 0.029657498 0.020369533 0.013581893
000140 81 8c d3 3c 74 ca fb 3d 6c e5 f7 3c 23 b9 84 3d
       0.025823833 0.12294474 0.030260764 0.064806245
000150 18 c2 46 3c d1 bb aa 3c fa b4 72 3d f6 9a bd bb
       0.0121312365 0.020841511 0.059254624 -0.005786295
000160 3a 91 62 3d d9 82 82 3d f1 4e 1f 3d ab 14 5d 3b
       0.05531428 0.063726135 0.038893644 0.0033734243
000170 16 9d 07 3c 7d 13 17 3d f6 0c 90 3d 9e ec 39 bd
       0.008277198 0.03688382 0.07033722 -0.04539167
000180 db b7 4a bd 87 a9 2b bd 58 f1 5d 3d b8 72 7c bb
       -0.049491744 -0.04190972 0.05418524 -0.0038520526
000190 b4 4a d4 bc 69 3b a3 bd 6b 3e f2 bc dd e5 b4 bd
       -0.025914527 -0.07970316 -0.029570779 -0.088329054
0001a0 c0 f9 ad bd 9c 32 82 3d 8b f9 9f 3d b7 a2 41 3d
       -0.08494902 0.06357309 0.078112684 0.047274318
0001b0 13 77 ae 3c 5c 9e 41 3d 04 0a 77 bd 71 bc 40 3c
       0.021297013 0.047270164 -0.060312286 0.011763678
0001c0 dc 4b d7 3c d3 72 7d 3d 7b b8 6a bd e1 56 af 3d
       0.02628129 0.061877083 -0.05730484 0.08561493
0001d0 b5 1a bd 3d 27 6a 5f bc e3 71 8b 3d 7d af 1e bd
       0.092336096 -0.013636149 0.068088315 -0.038741577
0001e0 05 4d 0b bc 19 49 77 bc 59 1f fe 39 34 6c af 3d
       -0.00850225 -0.015093111 0.0004847001 0.0856556
0001f0 9d 53 77 bc 44 66 ef 3c a5 44 8a 3b fc 16 97 bc
       -0.015095619 0.029223569 0.004219609 -0.018443577
000200 9a 6e af b8 75 96 b5 3b 50 45 1c bb 41 61 90 3d
       -8.3652514e-05 0.0055416175 -0.0023845024 0.070498
000210 2e 6a 55 3d 95 23 22 3d 11 47 6b bd 19 21 56 3d
       0.052103214 0.039584715 -0.05744082 0.052277658
000220 b2 85 72 bd b9 d0 2c 3d df 3b 06 bb b3 df 73 bd
       -0.059209533 0.04219124 -0.0020482463 -0.059539508
000230 a7 ff 18 bd df 9d 2b 3d bb 0a 19 3d 5e d6 8c bc
       -0.037353184 0.041898604 0.03736375 -0.017192062
000240 1a 5e 80 3c 1f be 7b bd ed 02 d3 3b 8c fe 37 3d
       0.015669871 -0.06146061 0.0064395578 0.04492049
000250 45 e0 32 bd 15 26 9a bc 6b c3 67 bc 1c 45 92 3d
       -0.04367091 -0.018816987 -0.014145712 0.07142088
000260 14 fe 83 3c 22 b3 44 bd d2 2b 4a bd 91 37 70 bd
       0.016112365 -0.048022397 -0.049358197 -0.058646742
000270 05 8c 2e bd ae b2 38 bd 68 f9 c3 3c b2 56 1f bd
       -0.042614 -0.045092277 0.023922637 -0.03890104
000280 55 4b 3f bd df f5 88 3c 9e 74 9f bd 62 7e d8 bd
       -0.0467027 0.016718803 -0.07785915 -0.105709806
000290 27 9c 60 3d 2c 32 40 3d d0 7a 01 3d f7 9c 56 bd
       0.05483642 0.046922848 0.031611264 -0.052395787
0002a0 ef 97 e1 bd bf 94 53 bd 0b 40 af 3b a8 2b db bb
       -0.11015307 -0.051655527 0.0053482107 -0.006688554
0002b0 de d7 8e bb 0e a2 09 3d 8f fe 78 bc 09 90 22 3c
       -0.0043592295 0.033601813 -0.01519741 0.009922036
0002c0 b1 cc bd 3d e7 b8 73 bd a3 9a 84 3d fb af 3b 3d
       0.092675574 -0.05950251 0.06474807 0.045822125
0002d0 69 8a 3b bd 2a 2a 49 bd d7 cc 82 3d e7 73 5a bd
       -0.045786295 -0.049112476 0.06386726 -0.05333319
0002e0 37 34 f7 bc 6a 3d 3c 3d 3d 2f f7 bc 01 aa 8c 3d
       -0.030176265 0.045957007 -0.030173892 0.06868363
0002f0 df 0d 65 bd 3d 88 96 3c b8 2f 90 3c 3f 3d 1d 3c
       -0.05592143 0.01837551 0.01760088 0.009597122
000300 38 8b a5 3d 62 72 3e bd 31 b3 2f bd b0 aa 05 3b
       0.080831945 -0.046495803 -0.0428955 0.0020395927
000310 df 7b 9d 3c 98 a9 8e 3d 7c a7 8f 3d 3b b5 c8 3d
       0.019224105 0.06965941 0.07014367 0.09800192
000320 a4 3f c5 3c 56 4a 94 3c 23 11 48 bd dd 3f 06 3d
       0.024078198 0.018101852 -0.048844468 0.03277575
000330 75 4c 33 3c b1 63 3c 3d a6 45 8d 3d 4e 19 1c bd
       0.010943522 0.04599351 0.0689805 -0.03811007
000340 46 52 29 3d 5b 95 09 bb ef b8 82 bc 7c 8a 36 3b
       0.041338228 -0.0020993564 -0.015957324 0.002785354
000350 6d 4f ab bd b8 1c 34 3d 9e 76 a5 bd c8 02 c6 bc
       -0.08364759 0.0439727 -0.08079265 -0.024171248
000360 22 2b 3b bd 25 fd 93 bb ea f0 04 3d 46 12 c6 bc
       -0.04569543 -0.004516261 0.032456316 -0.024178635
000370 2a 13 69 3d e5 66 b6 3c d1 ac a4 bd f8 50 67 3d
       0.056903042 0.02226586 -0.080407746 0.056473702
000380 b5 9d 9a bd 3f c0 1c 3d 69 ba 67 bc 1b e7 15 3d
       -0.075496115 0.038269278 -0.014143565 0.036597352
000390 47 1c 7c 3d 37 61 43 3d f6 e1 5f 3d 2d a3 7b bd
       0.061550405 0.047700133 0.054658853 -0.061434913
0003a0 2b 97 c5 bc c5 f8 73 3d fd e6 56 bd 3f de 44 3d
       -0.024119934 0.059563417 -0.05246638 0.048063513
0003b0 7a 66 0d 3c cf 01 8f bd 93 3f 84 bd bb 1a d8 bc
       0.008630389 -0.06982767 -0.06457438 -0.026379934
0003c0 9f c1 a2 3b e5 70 a3 3d 94 1b 63 bd c5 91 0b 3c
       0.004966929 0.07980517 -0.055446222 0.008518641
0003d0 97 95 76 bd 78 42 12 bb 19 52 1a bc 59 c8 f7 bc
       -0.060201254 -0.002231745 -0.009418988 -0.0302469
0003e0 0a 2c b0 3c 49 27 03 3d ef 9a 03 3d 67 02 60 bd
       0.021505374 0.032019887 0.032130178 -0.05468979
0003f0 b2 ed d6 bc 67 4f 37 3d 89 fa 3e 3b 41 f5 04 bd
       -0.026236389 0.04475346 0.002914103 -0.032460455

bnorm_temporal.weight f4 [8]
000000 c6 0b 91 3f de b2 83 3f e1 06 7d 3f f3 33 83 3f
       1.1331718 1.0288961 0.9883862 1.0250229
000010 72 3f 86 3f 4d 84 71 3f 57 9a 8e 3f 04 c8 74 3f
       1.0488112 0.943425 1.1140851 0.956177

bnorm_temporal.bias f4 [8]
000000 72 9c 3d 3b a1 75 67 3c ac 77 3c bc c3 72 d9 b9
       0.002893236 0.014127166 -0.011503141 -0.0004147497
000010 eb f7 50 bc 52 23 78 3b 5b 57 1b bb da ae fb bb
       -0.012754421 0.003786285 -0.002370319 -0.007680756

bnorm_temporal.running_mean f4 [8]
000000 39 53 5b 3b 9a b1 02 bc f7 0d 7a 3d 61 aa a7 3a
       0.0033466353 -0.007976914 0.061048474 0.0012791866
000010 ad d9 30 bb 94 cb 4d bd cb 5e c4 3b b7 21 79 bc
       -0.0026985214 -0.050242975 0.0059927455 -0.015205792

bnorm_temporal.running_var f4 [8]
000000 15 1e ac 41 c3 e0 3c 41 9b 84 11 42 fd f1 00 42
       21.514688 11.804873 36.379498 32.236317
000010 08 eb f2 41 8e 29 63 41 b0 f2 c3 40 28 a0 0f 41
       30.364761 14.197645 6.123375 8.976601

conv_spatial.weight f4 [16, 1, 19, 1]
000000 a6 91 30 bd 34 a9 24 3d ae ad 40 3e ed f9 1f be
       -0.04310765 0.040200427 0.18816254 -0.15622683
000010 74 54 48 bd fd 0a ce bc 1a ad 85 bd c2 73 d6 3d
       -0.048908666 -0.025151724 -0.06527157 0.10471298
000020 01 8f 10 bc 68 83 2a bd 18 fa 0c bd b2 5a c8 3c
       -0.008823157 -0.041629225 -0.034418195 0.02445731
000030 22 cd 81 bd f5 90 88 3d e7 4b d8 3d dd fb 40 bd
       -0.06337954 0.06668273 0.10561352 -0.047115196
000040 72 cd 1b 3d a2 6a 64 3c 59 16 5c bc ba 23 9d 3d
       0.038037725 0.013941439 -0.0134330625 0.0767283
000050 0b df bd bd 5a 35 3f bb e3 a7 e2 bd c8 f1 f6 3c
       -0.09271058 -0.0029176087 -0.11067178 0.030144587
000060 3d ad fe bc 71 e0 84 bd b1 c2 59 bb f9 67 09 be
       -0.031088466 -0.06488121 -0.0033227617 -0.13418569
000070 73 37 17 be 0b d8 cf 3d 7a 1a 59 bc ab 8b e8 bc
       -0.14767246 0.10148629 -0.013250941 -0.028386911
000080 ff 8f 8c 3d 27 fa 45 bd 52 c7 5d 3d bd 2c 01 be
       0.068634026 -0.048334267 0.054145165 -0.12614723
000090 18 f3 1f 3e 37 52 f2 bd 12 06 c0 3d 2f 3d 4e bd
       0.15620077 -0.118320875 0.09376158 -0.050351318
0000a0 0f af ad bd c9 c2 40 be 78 34 4b be de 91 83 3c
       -0.084806554 -0.18824305 -0.19844234 0.016060766
0000b0 1c 44 21 bd 15 7e cc bd 5c 59 8c bd e9 c1 7b 3d
       -0.039371595 -0.09984986 -0.068529814 0.061464224
0000c0 40 9a 2f bc 14 d4 9d bc 88 86 3c bc d3 79 bd 3d
       -0.010717928 -0.019266166 -0.011506684 0.09251752
0000d0 4d 7d 3e 3d 59 e7 29 bd bf e8 9b bc 94 60 0d bb
       0.046506215 -0.041480396 -0.01903188 -0.0021572458
0000e0 77 8a 95 bd 20 38 8d bd 86 f7 12 3d c3 85 62 bd
       -0.07301801 -0.068954706 0.035880588 -0.055303346
0000f0 5c 39 84 3c 6b b8 82 bd 65 2c d9 3d 52 c5 67 3d
       0.016140632 -0.06382831 0.10604171 0.056584664
000100 46 cc fc bd 4d d5 03 bd 8d db 96 bd 0e 0b 6b 3d
       -0.123436496 -0.03218584 -0.07366095 0.05738359
000110 30 d0 a1 bb 48 55 5f bc 91 69 e7 3d ea 28 7a 3e
       -0.004938148 -0.0136311725 0.11299432 0.2442967
000120 32 b5 08 bc 07 7f f6 3d 7e b8 8d bd 1e 9d 6d 3d
       -0.008343982 0.12035947 -0.06919955 0.058011167
000130 e7 53 df 3d ea e3 a8 bd 81 27 d3 3c 7e e2 7d bc
       0.10904675 -0.08246596 0.025775673 -0.0154958945
000140 cc 64 df 3d 1b dc 89 3d 9a 30 1b bd 0e 09 98 3d
       0.10907897 0.06731435 -0.037888147 0.07423602
000150 98 d0 a2 bd 1a b2 30 3e 28 b6 cd bd c7 49 f1 3c
       -0.07949942 0.1725544 -0.10044509 0.029454125
000160 fa bc 8f 3d be 0c 8e 3d 01 e6 be bc 4c 70 00 bd
       0.07018466 0.06936024 -0.023303034 -0.031357095
000170 0b fd b4 3d 6a 54 12 be 09 a5 62 bd 83 4c d1 3d
       0.088373266 -0.14290014 -0.05533317 0.102196716
000180 d0 9f 6e bd 07 83 94 bb f1 6f 87 3d 62 fa 26 3e
       -0.058257878 -0.0045322212 0.06613148 0.16306451
000190 8b ec 23 bc 60 23 9e 3d d1 ea 7b bd 5d 1c f8 3d
       -0.010005127 0.07721591 -0.061503235 0.12114785
0001a0 f3 af 86 3c 08 22 8c bd a8 87 58 bd ed 99 03 3e
       0.016441321 -0.068424284 -0.052863747 0.12851687
0001b0 ef a3 d4 bd b2 60 55 bc 2f 8f 83 bd 35 01 2b bb
       -0.1038283 -0.013023542 -0.064237945 -0.0026093249
0001c0 54 93 84 bd 3d 32 3e bd ac 25 eb 3c 6e b8 10 bd
       -0.06473413 -0.04643463 0.028704487 -0.035332136
0001d0 5b 71 1b be 93 4b 4c 3d 4d 8b 4e be 0b d6 b8 3c
       -0.1517996 0.04987676 -0.20170327 0.022563001
0001e0 ae b5 cd 3d 22 b5 64 3d fd 0d c9 3d 0b 3d b3 bd
       0.10044418 0.055836804 0.09817121 -0.087518774
0001f0 c1 c6 e5 3d 36 48 eb bd b9 2f 7f 3d 0f 4e fc bd
       0.1121955 -0.114883825 0.06230137 -0.12319576
000200 a5 5a 26 bd ca 97 17 bd 05 c3 be 3d 7a 68 84 b8
       -0.04061379 -0.03700999 0.09314541 -6.313711e-05
000210 68 e0 83 ba 0d 0d 38 3d eb 46 17 bd e9 92 75 be
       -0.0010061385 0.04493432 -0.036932867 -0.23981823
000220 d4 31 ab 3d 82 65 8f bc 94 44 e0 3c 25 f8 d2 bc
       0.08359113 -0.017504457 0.02737645 -0.02575309
000230 b9 8d 8f 3d 5c 3d d9 3c 5d 44 0e be 3c 7d e8 3d
       0.07009453 0.026518516 -0.13893266 0.113520116
000240 aa 7a e2 3d 52 00 00 bd 9e e5 53 bd 5e b9 b9 3d
       0.110585526 -0.031250305 -0.051732652 0.09068559
000250 89 4c dc bc 74 13 c9 3c 2b 9d be 3d 21 b1 fe 3c
       -0.026891964 0.024545409 0.09307321 0.031090321
000260 ee fd 92 bd 44 6e c5 3d a1 1d b4 3d f7 9c 90 bd
       -0.071773395 0.09640172 0.08794714 -0.07061189
000270 5d 1f 0b bd 7e a5 de bd e2 1c 96 bc 84 eb 18 3d
       -0.033965457 -0.10871409 -0.01832432 0.03733398
000280 c3 58 0d bb f0 30 08 3e 38 df 4c bd 8e e7 7e 3d
       -0.0021567799 0.13299918 -0.050017565 0.062232547
000290 e2 d7 c8 bd bb 08 87 bd 09 6a eb bd 7e 9e 10 3e
       -0.098068014 -0.06593462 -0.11494834 0.1412296
0002a0 bd 59 da bd 1a a3 de bc 8d 61 84 bd ba 6e 26 bd
       -0.106616475 -0.027177382 -0.06463919 -0.04063294
0002b0 c3 f3 cf 3c 22 f7 2c 3e d5 80 cd bd 42 62 64 3e
       0.02538479 0.16891149 -0.100343384 0.22303107
0002c0 2c 06 79 be 61 a5 12 bd 93 da ef 3d fe 10 81 bc
       -0.2431876 -0.03580225 0.117116116 -0.015755173
0002d0 dd 00 92 3c 33 50 73 bc 9d 7f 12 3d 8f b3 cc bd
       0.017822677 -0.014850664 0.035766233 -0.099951856
0002e0 c1 93 df 3d 1f 8e ea bd 6c 3b cd 3d 6a 2b b0 ba
       0.10916854 -0.11452889 0.100210994 -0.0013440673
0002f0 7a 77 88 bd c6 66 54 3c c5 b7 1a 3d 36 27 a6 bc
       -0.06663413 0.012963956 0.037772913 -0.02028237
000300 66 6c 4c bd fa fc 05 3e 58 6d ff bd a8 b6 2f 3e
       -0.049908064 0.13084784 -0.124720275 0.17159522
000310 f3 0a 48 3d dd 75 84 bc 50 04 8f bd 68 7d 6f bd
       0.048838567 -0.016169483 -0.069832444 -0.058469206
000320 c2 d0 f5 bd 82 f2 09 bd d2 86 23 bd 34 e5 4e 3d
       -0.12002708 -0.03367854 -0.039923497 0.050511554
000330 f5 e9 5d 3c bb bd 03 3b 44 69 0a be aa 44 06 be
       0.013544549 0.0020102102 -0.13516718 -0.13112131
000340 13 72 66 bd dd 5e c9 bd e7 d5 de bd c7 46 6c 3d
       -0.056261133 -0.09832547 -0.108806424 0.057684686
000350 b0 29 c6 3d c5 6b 39 be a6 64 15 bd 20 8e e7 3d
       0.0967592 -0.18107517 -0.03647294 0.11306405
000360 00 a0 90 bd 04 4b 12 3d cf 2e 0a bb a7 bb be bc
       -0.070617676 0.03571607 -0.002108503 -0.023282839
000370 fd 16 43 3d 98 74 96 3d 54 d0 06 3e 2c f9 8e 3c
       0.047629345 0.07346457 0.13165408 0.017452799
000380 21 88 38 3c 1c 9c 26 ba 8e b4 b2 bb 10 f5 0b 3d
       0.011262924 -0.00063556596 -0.0054536527 0.034169257
000390 86 be b7 3c 26 56 74 bd dc 80 09 be 42 c0 42 3e
       0.022429716 -0.05965247 -0.13428062 0.19018653
0003a0 30 b9 c5 bc 41 09 fb bd c4 9e 45 bd 09 7a 35 bd
       -0.024136156 -0.122576244 -0.048247114 -0.044305835
0003b0 07 35 c0 3d dc 5b 09 be bd dd 12 3d b3 bb 97 bd
       0.09385114 -0.13413948 0.035855997 -0.07408848
0003c0 e3 d0 86 bd 09 35 b1 bd ed 9d f3 3d 1a c4 81 3d
       -0.06582811 -0.08652694 0.11895356 0.063362315
0003d0 42 e8 ca 3d b3 74 de bd 61 90 aa 3d d0 dd cd 3c
       0.09907581 -0.10862102 0.08328319 0.025130183
0003e0 99 01 82 bc 3e b6 c4 bd dd 78 c3 bc 03 ef 37 be
       -0.015869902 -0.096050724 -0.023861343 -0.1796227
0003f0 70 b5 2c 3e 36 d1 3f 3d 1e 05 92 3c db fa 21 3b
       0.16866088 0.04683038 0.017824706 0.0024716172

bnorm_1.weight f4 [16]
000000 cd 63 8f 3f 50 bf 6a 3f 74 79 84 3f e4 6c 77 3f
       1.1202332 0.9169817 1.0349565 0.9665053
000010 18 ae 79 3f 9d 92 80 3f 93 f5 80 3f ea 39 7f 3f
       0.9753127 1.0044743 1.0074943 0.99697745
000020 98 ac 6f 3f f1 d7 89 3f ca 01 74 3f f2 45 79 3f
       0.9362273 1.0769025 0.9531523 0.97372353
000030 08 19 85 3f bc 20 8e 3f c0 55 75 3f a0 57 80 3f
       1.0398264 1.110374 0.9583397 1.0026741

bnorm_1.bias f4 [16]
000000 24 d6 7e bd 06 a2 d4 bd d3 8d fb bd eb f2 3d bd
       -0.06221594 -0.10382466 -0.1228291 -0.046374243
000010 79 89 77 bd 74 0f e2 3b 5f 06 d3 bb 9b 5a e0 bc
       -0.06043384 0.006898815 -0.0064399685 -0.027386954
000020 bb 58 22 bd e7 9a 6b bd b2 0a 9e 3c 0d 89 05 bd
       -0.0396354 -0.057520773 0.01929221 -0.032601405
000030 9b fd 54 bd f7 71 4a be 05 cf cf bd 65 fa 19 bd
       -0.05199967 -0.19770037 -0.10146908 -0.03759231

bnorm_1.running_mean f4 [16]
000000 0e af 45 39 c9 08 87 ba 14 be 09 bc 74 1a 96 3b
       0.00018852597 -0.0010302301 -0.008407135 0.00458079
000010 78 63 aa bb 11 3a 83 bb c4 0c d1 36 b6 ab 99 b9
       -0.005199846 -0.004004725 6.2301715e-06 -0.0002931037
000020 92 a2 4c 3b 5f a3 36 ba 87 ab 02 bc ac 81 2b 3c
       0.003122483 -0.0006967093 -0.007975466 0.010467928
000030 fa 7c 91 39 bd f9 d3 b9 55 ed 38 b9 00 b1 4b bb
       0.0002774967 -0.00040431126 -0.0001763602 -0.0031080842

bnorm_1.running_var f4 [16]
000000 07 78 21 3c 7e b5 cd 3d 23 9b aa 3c 58 4d 39 3d
       0.009855277 0.100443825 0.020825928 0.045239776
000010 32 65 d6 3c a6 6a 40 3d bc 71 e3 3c 3c 2f 83 3c
       0.0261713 0.046976708 0.027764194 0.016013734
000020 83 f2 37 3d c5 a4 bc 3c e5 76 ad 3d 84 79 32 3e
       0.04490901 0.023027787 0.08469943 0.17429167
000030 0a 20 a2 3d 45 cd 75 3d 62 01 0b 3d 61 25 42 3d
       0.07916267 0.060010213 0.033936866 0.04739893

conv_separable_depth.weight f4 [16, 1, 1, 16]
000000 10 46 2b 3e 69 09 66 3e 55 83 9e 3d 6b bb a8 3d
       0.16725945 0.22464527 0.07739893 0.08238872
000010 cb 5d 87 3d e2 2b 97 3d eb bf c2 3c c8 c9 cd bd
       0.066096865 0.07381417 0.023773154 -0.10048252
000020 6f a0 57 be ec 8c d8 bc 1f db 4e bd ac 48 50 bd
       -0.21057294 -0.026434384 -0.05050194 -0.050850555
000030 28 42 c5 bc 67 b0 8a 3b db aa c2 3c 0e 48 f5 3d
       -0.024079397 0.0042324546 0.02376311 0.11976634
000040 ed 4c ae bd 14 c0 a5 bd 70 15 93 3d 32 6a 09 bd
       -0.08510766 -0.080932766 0.07181823 -0.03354854
000050 96 96 8e 3c 33 be e7 3c 1b 4e e3 3d 12 85 c3 bd
       0.01740579 0.028288936 0.11098882 -0.095468655
000060 e0 2d 86 bd 4e 91 a2 3d 35 90 a8 bc c8 7e a6 bc
       -0.06551719 0.07937871 -0.020576576 -0.020324126
000070 a4 3e 35 bd f0 5f 8b bd d3 19 2f 3d 6c 4c fd bc
       -0.044249192 -0.06805408 0.042749237 -0.03092023
000080 08 d0 e6 3d 3f f4 04 bc c2 29 24 3d 7c 15 3f 3d
       0.112701476 -0.008114873 0.040078886 0.04665135
000090 71 b7 16 bd 12 c8 1c be 76 cf 41 bc db 0e d7 bd
       -0.036796037 -0.15310696 -0.011829248 -0.1050088
0000a0 51 9c f4 bd 18 1a d3 bd 86 5d de bd 61 1c 60 3d
       -0.119438775 -0.10307711 -0.10857682 0.054714564
0000b0 b6 7a 29 bc f3 f3 9e 3d a1 9d 4a bd 2d 59 e2 bd
       -0.010344198 0.07761373 -0.049466733 -0.11052165
0000c0 41 b7 bb 3d 54 29 05 3e ef 92 0d bd 76 29 d8 bd
       0.09165812 0.13004047 -0.034563955 -0.10554783
0000d0 c0 47 a2 bd df 95 61 bc e4 9f f5 bc dc 10 98 bd
       -0.079238415 -0.013768642 -0.029983468 -0.07425091
0000e0 69 f8 e6 bc 14 83 07 be d4 e0 e8 bd 39 ca 86 3c
       -0.028194623 -0.13233596 -0.113710076 0.01645385
0000f0 9f 89 fa 3d 72 b4 32 3d f9 21 24 3c f7 af 04 3e
       0.122332804 0.043629117 0.010017865 0.1295775
000100 08 c7 c8 bd 88 fa 75 bd 08 a0 ad 3d ac 87 0f bd
       -0.09803587 -0.06005338 0.08477789 -0.035041496
000110 78 85 ce 3c da 88 f8 bd f4 50 d7 3d 0a 92 cc bd
       0.025210127 -0.12135477 0.105134875 -0.09988792
000120 52 1e 5b 3d 7f be b0 3d d3 69 b8 3d cb cc e6 3c
       0.053495713 0.08630084 0.09004559 0.028173825
000130 71 cf 4f bc cd 93 cf 3d 75 a5 dd 3c 96 80 25 3d
       -0.012683735 0.10135613 0.027056435 0.040405832
000140 93 86 b2 bd 8f ed e3 3d e8 d6 8d 3c c1 e8 87 3d
       -0.08717074 0.11129295 0.01731439 0.06636191
000150 b6 a5 e2 3c 4d 7d b9 3d 45 16 a3 bd 92 e6 50 bd
       0.027666908 0.09057102 -0.07963232 -0.05100114
000160 86 d3 67 bd 9b 13 cd 3d 8a ad 11 3d 2e 67 15 bc
       -0.05659821 0.10013505 0.03556589 -0.009118838
000170 97 e4 9d 3d 51 07 00 3e ea b8 e4 3c f2 02 f5 3d
       0.07709616 0.12502791 0.027920205 0.119634524
000180 5d eb c9 3d 99 ff b2 bb a5 9d ee 3b dc 07 a7 bd
       0.09859345 -0.0054625985 0.0072819763 -0.08155796
000190 f4 a0 2e 3d 37 84 21 3d 55 be 85 3d d8 97 01 be
       0.042633966 0.03943273 0.065304436 -0.1265558
0001a0 f3 57 80 3d 4a fa b3 bd 3e 64 6f 3d 9a d5 8f 3c
       0.06266775 -0.08787973 0.058445208 0.017557908
0001b0 34 26 87 3c ba ff d1 bd f3 64 01 be 04 d8 e2 bd
       0.016497709 -0.10253854 -0.12636165 -0.11076358
0001c0 47 1e e8 bc a5 58 de bd 12 f5 ee 3c 66 6f c2 3c
       -0.02833475 -0.10856751 0.029169593 0.02373476
0001d0 e6 9c bd bb 05 e8 1c 3e b9 dc 44 bd 20 29 bc 3d
       -0.005786526 0.15322883 -0.04806206 0.091875315
0001e0 25 8c b2 3d 16 08 8e bb 2f 1f de 3d b1 36 8f bc
       0.08718137 -0.00433446 0.108457915 -0.017482134
0001f0 8b 60 83 3d 5d 90 3c 3d 44 13 23 bd 70 0c 13 be
       0.064148985 0.046036113 -0.039813295 -0.14360213
000200 2e 01 d8 bd 6e 85 8a bc af a6 a9 bd 9c ef 89 bd
       -0.105471 -0.016909327 -0.082837455 -0.06735155
000210 4a 12 35 ba 07 6a 7f bb d4 2c 90 3c 69 c8 27 3e
       -0.00069073273 -0.003897311 0.0175995 0.16385044
000220 f2 92 9b bd 3e 73 16 3e af 33 bd bc cc 7e 01 bd
       -0.07596387 0.14692399 -0.023095934 -0.031615064
000230 59 8b 58 3d c6 0e a4 3c 79 2b 86 bd c2 c7 44 bd
       0.052867267 0.020026576 -0.065512605 -0.048042066
000240 68 77 02 3d 3b fc 2d bd e2 83 30 be 90 06 3d be
       0.031852156 -0.042476874 -0.1723781 -0.18459535
000250 ab 67 92 bd a5 4c 92 bc dd 9f 04 be 6b 95 84 bd
       -0.07148679 -0.017858813 -0.12951608 -0.06473812
000260 92 dc 96 3c 66 6b f0 3d d2 9b a9 3d bd 08 47 3d
       0.018415723 0.117392346 0.082816735 0.048592318
000270 35 7c 12 3c ef e1 2c 3d 28 a5 13 3d af 62 e3 b9
       0.008940746 0.042207655 0.036046177 -0.0004337034
000280 ac d7 da bd 0a ec 6b bd 37 bf d5 3d fa 17 ef 3b
       -0.106856674 -0.05759815 0.10436862 0.0072965594
000290 9c 93 b7 3d 62 35 39 3c 07 c9 36 bd 1d 00 f0 3c
       0.08963701 0.011304231 -0.04462531 0.029296929
0002a0 c4 f1 fa 3c be b4 42 bc cd fa 7b 3d 79 ca 25 3d
       0.030632861 -0.011883913 0.06151848 0.040476296
0002b0 ac 36 af 3c c3 d9 c7 3d 6d f0 ac bd 9c 85 3a 3d
       0.021388374 0.097583316 -0.08444295 0.045537576
0002c0 13 29 1c 3d 50 cb 87 3c e0 18 ae 3d 21 5b db bd
       0.03812511 0.01657644 0.08500838 -0.10710741
0002d0 f1 dc c1 bd 78 19 36 3d 8c 19 09 3d 4b 0b a0 3d
       -0.09465969 0.044457883 0.03347163 0.07814654
0002e0 c3 47 1c 3d eb b8 81 3d a9 63 67 bd ca f5 27 bd
       0.038154375 0.063340984 -0.056491528 -0.041005887
0002f0 c0 61 ba bd cd c3 5a bd c7 34 12 be 5c d9 c8 3a
       -0.091006756 -0.053409386 -0.14277945 0.0015323567
000300 4c 66 4c 3c b3 4f 32 bd a2 18 b0 bd 6b 63 65 3d
       0.012475561 -0.04353304 -0.08598448 0.056003015
000310 9b b1 63 3d dc 5d 22 3d de a8 c9 3d a9 d1 b9 bc
       0.0555893 0.039640293 0.09846662 -0.022682982
000320 48 2d 85 3d a1 99 b9 3d c0 e6 e1 3d ab 68 00 3e
       0.06502777 0.090625055 0.1103034 0.12539928
000330 68 b8 ee 3d 7f 15 85 bd 9d 1b e7 bd 1d 27 ef bd
       0.116562665 -0.06498241 -0.11284564 -0.11677382
000340 6e 93 11 be 1e 80 0b be ca 5c c8 bd 91 b0 91 bc
       -0.14216396 -0.13623092 -0.09783323 -0.017784389
000350 2e 8d 09 be 19 4d be 3c f1 ea 18 be 16 dc e9 bd
       -0.13432762 0.023230122 -0.14933373 -0.11418931
000360 99 8a 21 be 39 75 19 be ca fd 6b bd 1f c8 4e bd
       -0.15775527 -0.14986123 -0.05761508 -0.05048382
000370 35 69 d9 3d d3 f4 b2 bd 45 18 e4 3d 18 33 8b bd
       0.1061577 -0.08738103 0.111374415 -0.06796855
000380 85 a1 1c be ea 2a 17 be 03 a6 dc bc f7 5b 9e 3d
       -0.1529599 -0.14762464 -0.02693463 0.07732385
000390 4a 23 a1 ba 1d 52 aa bc de 8e 9f bd 77 d1 87 bd
       -0.0012293842 -0.020791108 -0.07790922 -0.06631749
0003a0 61 e3 96 bc 29 4e f8 bc 30 f6 86 bd 3a 48 e9 3d
       -0.01841897 -0.030310707 -0.06589925 0.11390729
0003b0 94 33 da 3b c5 c7 0e 3e 0c e5 6d 3d b8 f1 25 3d
       0.0066589806 0.13943394 0.058079764 0.040513724
0003c0 5b a5 cb 3c 94 1b f5 3d 55 b6 6d 3c 6b 2f 03 be
       0.024859121 0.11968151 0.014508803 -0.12811057
0003d0 ad 0f f6 bd d1 02 bc bd 4e 37 dc 3d c2 e3 32 bd
       -0.12014709 -0.09180225 0.10752736 -0.043674238
0003e0 b5 79 31 3e 15 c1 44 bc ff a3 13 3e 98 1c 50 bd
       0.17331584 -0.012008925 0.14418028 -0.05080852
0003f0 17 3e 25 bd 5e 16 f0 3c 76 b3 25 be 10 01 19 be
       -0.040342417 0.02930754 -0.1618174 -0.14941812

conv_separable_point.weight f4 [16, 16, 1, 1]
000000 64 d0 f1 bd f8 29 d7 3d 48 d0 95 be f0 82 6b 3e
       -0.118073255 0.10506052 -0.29260468 0.22999167
000010 1f 3e 99 be d2 aa bb 3e 5a 87 d4 be 49 49 ea 3e
       -0.29930207 0.36653763 -0.41509515 0.45759037
000020 5e cb 8f 3e d9 5e 0e 3e 33 1e b1 3e 05 ea 83 3e
       0.28084844 0.13903369 0.34593353 0.2576448
000030 59 0d ab be d9 11 c0 bd d4 15 b1 3d 33 92 a7 3e
       -0.3340862 -0.09378404 0.086467415 0.3272873
000040 95 41 81 be 82 b5 57 3d 5c f2 c3 3e bd 9f c5 bc
       -0.25245348 0.052663334 0.38270843 -0.02412402
000050 70 39 47 bd 59 f6 14 3e 0f c5 ce bd 5e 8c 44 bc
       -0.04863876 0.14547099 -0.1009618 -0.011996357
000060 81 8b 81 bc 60 1e 97 3e bc 75 58 be 6b 1c c5 3e
       -0.015813591 0.29515362 -0.21138662 0.38498244
000070 b0 08 a7 be 14 f2 ad bc c4 df 8c be ae 98 03 3f
       -0.32623816 -0.021233596 -0.2751447 0.51404846
000080 f0 9b bb be f0 ac 7b 3c f5 ba 0d 3e 7b 61 c4 be
       -0.36642408 0.015361056 0.1384085 -0.38355622
000090 d1 4a f8 3c d6 97 a5 be 6f 63 41 3e 8b a3 cc be
       0.030309113 -0.32342404 0.18885587 -0.39968523
0000a0 36 f2 a7 3e 0d 10 4b 3e ad 3d 61 3c 14 f3 b1 3e
       0.3280198 0.19830342 0.013747615 0.34755766
0000b0 b4 17 7f be a0 5d e0 3d 4c 50 8d 3e 0f 17 bd 3e
       -0.24911386 0.109553576 0.27600324 0.36931655
0000c0 8f 79 02 be 58 d9 94 be 4e ea 46 bd 54 c4 6e 3e
       -0.12741683 -0.2907207 -0.048563294 0.2331708
0000d0 bb dc 50 be 3f 2f 32 3e 08 b0 6a be cc ce 43 3d
       -0.20396702 0.17400835 -0.22918713 0.04780464
0000e0 04 29 25 3e 8b 6e 24 be 49 80 7a 3e 49 ae a6 be
       0.16128927 -0.16057794 0.24463 -0.32554844
0000f0 5a bc 64 3e 1d 38 09 3f 24 59 32 3e ba 9f 8a 3e
       0.22337475 0.5360125 0.17416817 0.27074987
000100 aa a7 a8 3e c6 b7 9a be 4e 34 56 bd c7 b3 c3 3d
       0.32940418 -0.30218333 -0.052295975 0.09555774
000110 00 41 b1 3e d0 f3 99 bc f0 c8 b1 be fd a1 a0 bd
       0.34619904 -0.018793017 -0.34723616 -0.07843397
000120 df 31 79 be 1f b3 c0 be e6 fa 5a bd 58 cf 67 3d
       -0.2433543 -0.3763666 -0.05346193 0.056594223
000130 0e 28 ec bd 33 3a 78 be 9b 10 ca 3e 83 9b a6 be
       -0.11531077 -0.24240951 0.39465794 -0.3254052
000140 9d 65 a7 be b7 8c 6f 3e 1b d4 7b 3e f2 97 30 bd
       -0.32694712 0.23393522 0.2459263 -0.043113656
000150 50 bb 46 bd 14 8e c7 3d 1b 46 93 3e e5 5e 08 3d
       -0.04851848 0.09743896 0.28764424 0.033293623
000160 ca 7b 91 be fb 96 0e bd 53 09 aa 3e e5 c0 3d 3e
       -0.28414756 -0.034811955 0.3321024 0.18530615
000170 9e 9d 16 be 25 db e9 3e 24 52 b2 be 47 44 1e bc
       -0.14708564 0.45675007 -0.34828293 -0.009659833
000180 78 10 85 be 4c 11 7e 3c 52 7e 5e bd d9 fd 4b be
       -0.25989127 0.015507054 -0.054319687 -0.19921054
000190 d4 2c ad 3e 0c 8b aa be de c9 a2 bd 00 90 e6 3e
       0.33823264 -0.3330921 -0.07948659 0.45031738
0001a0 ee 7d a7 be 93 5a b1 be 3d 32 8b bd 25 78 09 bc
       -0.32713264 -0.34639415 -0.067966916 -0.008390461
0001b0 8a 16 27 be c3 28 c6 be 4e c9 0b 3e 00 4f 31 be
       -0.16317192 -0.38702974 0.1365101 -0.17315292
0001c0 bf 2e 6f be 69 10 0b bc f8 3d d4 3e 5f 29 87 be
       -0.23357676 -0.008487799 0.41453528 -0.2639875
0001d0 ff 7a 82 bc 26 5c e8 be d4 c0 46 3e a5 ec 79 bd
       -0.01592779 -0.45382804 0.19409496 -0.061016697
0001e0 64 1f f5 bd 51 de 3d 3c 8b ac c3 be 1c 54 c8 3e
       -0.11968878 0.011588649 -0.38217577 0.3912667
0001f0 41 c9 0f 3e ec 2a c6 be 8d fd 81 be b7 ed 41 be
       0.14041616 -0.38704622 -0.25388756 -0.18938337
000200 fe 9a 70 3e 37 e3 4d be 8c 5c 36 3d bc 8e 82 be
       0.23496625 -0.20106207 0.044521853 -0.25499523
000210 16 fc a7 3e fa 40 92 3e 95 45 b0 3e 1e d0 55 3e
       0.32809514 0.28565198 0.34428087 0.20880172
000220 ac b2 9a be b5 a6 bf be ce 15 8f be 85 c3 46 be
       -0.3021444 -0.37431875 -0.27946323 -0.19410522
000230 f6 f1 bb 3e 1a bf b8 be 09 af fb 3e 0e b2 8b be
       0.3670804 -0.360833 0.4915698 -0.27284282
000240 0f d6 d0 3e 55 59 23 3e 55 2a ce 3d 2a 04 a1 3e
       0.40788314 0.15952046 0.10066668 0.3144849
000250 ca 97 90 be 74 c1 45 3e 12 c2 ad be 6f 3e b1 3e
       -0.28240806 0.19312078 -0.33937126 0.34617946
000260 80 25 3d 3c 79 00 a3 be cf 00 b6 3e 83 49 05 3e
       0.011544585 -0.31836298 0.35547492 0.13016324
000270 ea f4 17 bd 52 2a a2 3e a2 1f b8 be f3 d8 84 be
       -0.037098803 0.31672913 -0.35961634 -0.2594677
000280 b2 b9 cf be fe 73 d4 be 3c 34 72 be 5b bc 0a bf
       -0.40571362 -0.41494745 -0.23652738 -0.5419366
000290 9f 78 c0 be 88 50 a7 3e da e9 59 3e ae 51 c8 be
       -0.37592027 0.32678628 0.21280614 -0.39124817
0002a0 58 3c 05 3e 8c b3 be bd c5 33 83 be 97 c8 1f 3e
       0.130113 -0.093115896 -0.25625435 0.15603863
0002b0 6e 67 fe 3d 68 a3 af 3e 7f d2 88 bd 11 ae 9e 3e
       0.124220714 0.34304357 -0.06680774 0.30992177
0002c0 dc b0 44 3d 5a 61 c1 be ce 19 ca 3e 7c 25 a4 be
       0.04802023 -0.37769586 0.39472812 -0.32059848
0002d0 71 4b a7 3e 97 ec b6 be 83 1a 08 be 5f cc b2 be
       0.32674745 -0.3572738 -0.13291363 -0.34921548
0002e0 27 56 ad 3d 78 4f e7 be 7f 51 03 be 32 72 93 bc
       0.08463698 -0.45177817 -0.12824057 -0.017998789
0002f0 bd 23 b0 be eb 59 c8 3e 58 ff da 3d d5 58 3f be
       -0.34402266 0.39131102 0.10693234 -0.1868623
000300 93 59 b5 be 15 5d 62 3e 79 93 d7 3e 77 96 cb bd
       -0.35419902 0.2210582 0.421047 -0.09940808
000310 cc bb 00 3e ab 6a 2c 3c 14 12 53 3e 28 e5 89 bb
       0.12571639 0.0105234785 0.20612365 -0.0042082258
000320 16 79 25 3e 0c ca 81 be 25 a2 c3 3e 34 90 8b be
       0.16159472 -0.25349462 0.38209644 -0.27258456
000330 af cc c7 bd cc c1 ca 3e 74 f3 8c 3e a8 90 14 be
       -0.09755837 0.3960098 0.2752949 -0.14508307
000340 68 90 58 3e ee c4 9b be 5f ab c0 3e 95 df 38 3e
       0.21148837 -0.30423683 0.37630746 0.1805404
000350 a5 20 3a 3e 75 5a 5c be a4 cb 41 3e 3e c9 bf be
       0.18176515 -0.21518882 0.18925339 -0.37458223
000360 c4 24 cc 3d b2 7f f7 be df 06 3d 3d d2 06 37 3d
       0.0996795 -0.4833961 0.04614913 0.04468424
000370 db 3d 36 be 33 8c 84 be 9a d4 90 3e 53 b3 a2 be
       -0.17797033 -0.25888214 0.28287202 -0.3177744
000380 19 af c7 3d bd 3f 87 bd 1a 4c b5 3e a6 21 43 3d
       0.09750194 -0.06603954 0.35409623 0.04763951
000390 75 e7 17 be 27 27 71 be 0d d5 5b 3c c7 98 6e be
       -0.14834388 -0.23550092 0.0134174945 -0.23300467
0003a0 45 4f 89 3e 08 11 ca be 3b fa 9b be a7 37 c7 3d
       0.2681829 -0.3946612 -0.30464348 0.09727412
0003b0 e8 c8 c8 be 81 12 0a 3e 19 f7 97 3e f6 fe b6 be
       -0.3921578 0.13483621 0.29680708 -0.35741395
0003c0 63 90 87 be a1 9c 69 bc 2c b2 ab bd 7a f3 29 be
       -0.26477346 -0.014258535 -0.08383593 -0.16596785
0003d0 41 72 4e be c5 1a ab 3c 87 fa b7 3e 80 bc 23 be
       -0.20160772 0.020886788 0.35933325 -0.15989876
0003e0 b7 e7 6c 3e 6d b5 a1 3e 21 83 b7 bd 58 b4 c5 3e
       0.23135267 0.3158373 -0.08960558 0.38614154
0003f0 78 ea 8d 3e e2 85 13 be c3 b8 f3 3d f7 10 c4 3c
       0.27717948 -0.14406541 0.11900475 0.02393387

bnorm_2.weight f4 [16]
000000 ec aa 86 3f b5 14 86 3f bf 43 96 3f 19 69 81 3f
       1.0520911 1.0475069 1.1739424 1.0110198
000010 9b 22 97 3f ea c6 91 3f 32 ef 8a 3f b0 d5 80 3f
       1.1807436 1.1388829 1.0854247 1.0065212
000020 a8 62 80 3f 77 8f 94 3f 0b 64 91 3f 8f 3e 9a 3f
       1.0030107 1.1606282 1.1358656 1.2050341
000030 7b c9 99 3f dc d5 a2 3f fa 05 98 3f 6d 35 86 3f
       1.2014612 1.2721515 1.1876824 1.0485054

bnorm_2.bias f4 [16]
000000 26 44 cc bc 14 09 1b bd 02 57 07 bd 6e 90 46 bc
       -0.02493484 -0.037850454 -0.03304196 -0.012119396
000010 9b 38 b3 3c 8e 9a d1 3a 4d 4b 37 3c 77 bc 0c bd
       0.021877578 0.0015991495 0.011187387 -0.03435942
000020 0b 1a f4 bb 24 93 5c 3d 95 01 fc 3c e8 d8 40 3b
       -0.0074493936 0.05385126 0.030762473 0.0029426161
000030 60 aa cc 3c ec 11 f9 3c d3 8e d5 bc c6 ed cc bc
       0.024983585 0.030404054 -0.02606908 -0.025015723

bnorm_2.running_mean f4 [16]
000000 f1 6d ee 3c 8a 2e 73 bd c4 d5 d8 bd f2 d6 64 3c
       0.029105159 -0.059370555 -0.105876476 0.013967263
000010 6e 9b 69 3d d0 c3 1a bd 2c a1 4d 3c ce 8f 74 bd
       0.057032995 -0.037784398 0.012550633 -0.059707455
000020 09 e5 a0 3d 80 88 6d 3d b4 5c ed bc 42 85 3c bd
       0.07856185 0.057991505 -0.028974868 -0.046025522
000030 f5 29 ef bc bd b4 a5 bb e5 51 60 bd ca ec 1f bd
       -0.029194811 -0.005056946 -0.0547656 -0.03904418

bnorm_2.running_var f4 [16]
000000 c2 58 f4 3d b4 f0 06 3e a1 84 20 3e 46 06 b9 3d
       0.11930992 0.13177758 0.15675594 0.090344
000010 56 4b 18 3e f4 dd ae 3d c0 2e ff 3d 40 79 f0 3d
       0.14872488 0.08538428 0.12460089 0.117418766
000020 9f f7 1f 3e 1d 37 20 3e e3 1c 3e 3e df 46 24 3e
       0.15621804 0.15646024 0.18565707 0.1604266
000030 03 c9 d6 3d 93 9d 18 3e 78 44 fe 3d 35 40 ae 3d
       0.10487559 0.1490386 0.12415403 0.0850834

final_layer.conv_classifier.weight f4 [2, 16, 1, 18]
000000 06 47 8d bd d0 b6 0b be 38 ab d0 3d 54 c5 d9 bd
       -0.06898312 -0.13643956 0.101889074 -0.106333405
000010 8d ed 79 bd ac 2e 17 bd 46 67 c0 3d c7 77 e6 3d
       -0.06101756 -0.036909744 0.09394698 0.112533145
000020 e0 28 b1 bd 27 56 97 be aa d0 1f be ca 02 c5 bc
       -0.086503744 -0.29557917 -0.15606943 -0.024049181
000030 0b d1 31 bc 40 18 a9 bd f5 08 3a bd 64 71 b9 3c
       -0.010853062 -0.082565784 -0.0454187 0.022637077
000040 d6 a0 94 3d 62 2d c0 bd dd 34 b1 bd 11 8d eb bc
       0.072572395 -0.09383656 -0.08652661 -0.02875379
000050 ba b4 a3 3d 0e 48 b7 bd de e7 c2 3d 04 33 ce bc
       0.07993455 -0.0894929 0.095168814 -0.02517081
000060 24 92 a4 bd 59 b9 3b 3e 5f 03 a7 bc b7 c7 e8 bd
       -0.080356866 0.18332423 -0.02038735 -0.113662176
000070 67 d7 2b be 21 2e 4a 3e 8f 39 8b bd 87 54 9c bd
       -0.16781388 0.1974416 -0.06798088 -0.0763331
000080 6c ea fa 3d 8f f2 11 3d bb 20 4b bd 81 35 4c be
       0.12251744 0.035631713 -0.04959176 -0.19942285
000090 97 f7 08 be 66 cb a2 bc d1 0d e5 bd 03 ac 56 3d
       -0.13375698 -0.019872379 -0.11184276 0.052410137
0000a0 f6 46 81 3d bf fe 80 3d 1d 81 f9 3d 6e 74 e5 3d
       0.06312363 0.06298589 0.121828295 0.11203848
0000b0 49 fc 9c bd fc 84 6c 3e 9e d6 27 be 0c 91 88 3e
       -0.07665307 0.23097605 -0.16390464 0.26673162
0000c0 91 1a 7d 3d 7a 21 06 be 90 dd 84 bd a1 40 da bc
       0.061792914 -0.13098708 -0.06487572 -0.026642146
0000d0 8e 59 21 be 3e 3a 1a bd 82 95 bd bc 18 bb 8a 3b
       -0.15756819 -0.0376532 -0.02314258 0.004233729
0000e0 e2 08 20 bd a7 4d 6f bd 63 65 e1 bc 27 d1 97 3d
       -0.03907097 -0.058423664 -0.027514165 0.074129395
0000f0 f4 99 eb 3b e8 4c 4d 3c 4a 6b 11 be 94 41 d5 bd
       0.0071899835 0.012530543 -0.14201084 -0.10412899
000100 e1 1f 2d 3c 03 12 21 3d ff 9a 0f 3d f6 6a 95 3b
       0.010566683 0.039323818 0.035059925 0.00455987
000110 0c c8 e8 3d 88 67 fe 3d 5d d2 23 3c 95 f3 dd 3d
       0.11366281 0.12422091 0.009998885 0.10837475
000120 be a4 4c bc 28 59 87 3d a7 c6 2a bd 6f 4d 1e 3e
       -0.0124904495 0.06608802 -0.041693356 0.15459226
000130 5d 90 b7 3d 17 3d 12 bc ab e1 dd bd ae 7b 26 3d
       0.08963082 -0.008925698 -0.108340584 0.040645294
000140 e7 a5 cc bc 20 c0 f9 3c bf 5f 81 3e c8 14 32 bc
       -0.024981452 0.03048712 0.2526836 -0.010869212
000150 cd d1 a8 bd 83 8b fc 3c ba 54 d4 bd 78 22 89 bc
       -0.08243141 0.030828243 -0.10367723 -0.016740069
000160 e8 8c 4f 3d a6 d0 8f 3d 9f 96 d0 bd 35 07 15 be
       0.050671488 0.070222184 -0.10184979 -0.1455353
000170 0d 61 0a 3d 6f 1c e6 bc bb 6a 18 bd b6 86 97 3d
       0.03378396 -0.02808973 -0.03721116 0.07398741
000180 23 0b 90 bd 41 69 da bd db 4a 01 be dd 12 54 3d
       -0.07033374 -0.10664607 -0.12626211 0.051775802
000190 c1 88 83 bd 03 99 e3 3d db 26 22 3d 97 3b 30 3e
       -0.06422568 0.11113169 0.039587837 0.17210232
0001a0 3c 35 05 3e d0 fc 94 bd 11 b3 90 3d 49 fd a9 bc
       0.13008589 -0.07274783 0.07065404 -0.020750659
0001b0 21 39 3f 3e 60 47 9d bc ae 48 0a bd 2a d8 04 3e
       0.18674137 -0.019199073 -0.03376072 0.12973085
0001c0 54 a5 a0 bc e3 f3 bb 3b 49 19 d7 3d 44 3f 51 bd
       -0.019610085 0.0057358607 0.1050287 -0.051085725
0001d0 93 99 2b 3d 4d bc b1 3d c5 52 16 3d 04 64 57 3d
       0.041894507 0.08678494 0.03670003 0.052585617
0001e0 62 b6 6d bc 80 ed af bd 1e 66 49 be 3c e9 32 3d
       -0.0145088155 -0.085902214 -0.19667861 0.04367946
0001f0 c4 82 0c be 13 97 08 be a5 07 00 be aa ec 57 bd
       -0.13721758 -0.1333888 -0.12502916 -0.052715935
000200 94 8e 1b be 07 b8 bd bd 91 25 bd 3d 76 09 f7 bb
       -0.15191108 -0.09263616 0.09235681 -0.0075389696
000210 69 92 fb bb 86 65 de 3d 8a 1c 9f 3c 8c 45 d0 bc
       -0.0076773656 0.10859208 0.019422788 -0.025423788
000220 90 e8 a7 bc 5c 5f 45 3d 96 ed 9d bc 75 69 0c be
       -0.020496637 0.048186645 -0.019278329 -0.13712104
000230 80 45 b6 bc 4f 18 eb 3a b6 a8 de bd c0 9a 17 be
       -0.022249937 0.0017936322 -0.10872023 -0.14805126
000240 e4 a1 7b 3d 86 b9 e3 3d e3 c5 49 3d 30 19 0b bc
       0.061433688 0.1111937 0.049260985 -0.008489892
000250 61 8e d8 3d 20 8c 48 3d b1 fb 4e 3d 12 01 11 3e
       0.105740316 0.04896176 0.050533 0.14160565
000260 4a a3 17 3e 4b e5 7e 3d 13 d9 15 3e b3 cc 01 be
       0.14808384 0.06223039 0.14633588 -0.12675743
000270 a1 b1 1e be 71 f2 9c bd 63 36 0a bd 7c c6 ec bd
       -0.15497448 -0.076634295 -0.033743273 -0.115612954
000280 b8 02 15 bd 4d 04 35 3d 55 0d 10 be 2f 6a a2 bd
       -0.036379546 0.044193555 -0.14067586 -0.07930409
000290 56 9c 04 3e 3f 56 dc 3d 68 ff c3 3c 6e 97 03 bc
       0.12950262 0.10758638 0.023925498 -0.008031709
0002a0 30 e0 13 3d 00 ba 3b bd e5 ba 4f be d4 d6 7d bd
       0.036102474 -0.04583168 -0.20286138 -0.061972454
0002b0 b3 ee 57 3e 6b b7 46 be 02 38 1e 3d 3a 7d 7b 3e
       0.2108715 -0.19405906 0.038627632 0.24559489
0002c0 53 46 cf bd f3 d1 2a 3e c3 ad 34 3e b0 cf f2 bc
       -0.10120835 0.16681652 0.1764441 -0.029640049
0002d0 ae d9 85 bd df b6 8a 3d 11 57 79 bc a4 81 51 3d
       -0.0653566 0.06773161 -0.015218512 0.051149026
0002e0 1a e4 5b bc 6f c4 a6 bd b4 64 96 bc 20 48 a9 3d
       -0.013421083 -0.081429355 -0.018358566 0.0826571
0002f0 59 1e 2d be d4 66 be 3d a0 1e 68 be c4 cb eb bc
       -0.16906108 0.09296957 -0.22667933 -0.028783686
000300 d4 04 db 3d 3b 2c 84 3d da c0 db 3d 0b 72 1d 3d
       0.1069428 0.06453749 0.10730143 0.038438838
000310 1b d4 91 3d f4 65 c3 3d 8f 4e 59 bd 14 da 5f bd
       0.07120534 0.095409304 -0.053053435 -0.054651335
000320 d6 53 55 3d 69 6d 44 bc 7b 99 b0 3c 11 ad c6 3c
       0.052081905 -0.011988976 0.02155756 0.024252446
000330 bd ff 4d bd b1 ab 02 be cc 20 08 be fb 85 3d 3e
       -0.05029272 -0.12760808 -0.13293761 0.1850814
000340 eb fb ed 3d f0 34 e1 bd 3f 2d c8 bc 9c 75 a7 3d
       0.11620315 -0.10996425 -0.024435638 0.08176729
000350 61 72 da bd 1f 12 d8 3c 77 90 6a 3d f6 95 21 3d
       -0.10666347 0.026375828 0.05726668 0.039449655
000360 53 42 c0 bd 18 b3 88 bd df 6f 9d 3c 76 28 b8 3d
       -0.0938765 -0.066747844 0.019218383 0.08992092
000370 78 3b ee 3c da ce 17 bd 44 9f be bd 16 7c 0a 3d
       0.029081091 -0.037062503 -0.09307721 0.033809744
000380 c7 01 de bd 9e 61 5b 3e f8 ec 44 be ff d0 5d 3d
       -0.10840183 0.21423957 -0.19231021 0.054154392
000390 f1 0d 2e 3e e9 f1 93 3d d8 bf 58 bd f7 77 a7 bd
       0.16997506 0.07223875 -0.05291733 -0.08177178
0003a0 6b 71 a5 3d 95 f7 d6 3d 35 4a 46 b9 d0 8b a9 bb
       0.080782734 0.10496441 -0.00018910396 -0.0051741377
0003b0 86 84 a8 3d 48 e3 98 bd be a5 63 3d df c1 0a bd
       0.08228402 -0.074652255 0.055577986 -0.033876296
0003c0 9d 5f 43 3d 6b a2 84 3d fa 83 53 3d 2e e2 43 3e
       0.047698606 0.06476291 0.051639535 0.1912925
0003d0 14 8a 58 3e 77 e6 55 be 2a dc 0c bd cd d0 a9 bd
       0.21146423 -0.20888697 -0.034389652 -0.08291779
0003e0 b9 89 1f be 5c 76 28 be 8f b7 c9 bd a5 c5 d0 3c
       -0.15579881 -0.164514 -0.09849464 0.02548487
0003f0 f6 a0 43 3c 37 0b d7 bc 6b 71 ba bd 39 0d 89 3d
       0.011940232 -0.026250465 -0.09103664 0.06691975

final_layer.conv_classifier.bias f4 [2]
000000 38 6e ee 3c 2f 6e ee bc
       0.02910529 -0.029105274
