left-right/preexisting_eegnet_model.pth (torch, 16960 bytes, 18 tensors)

conv_temporal.weight f4 [8, 1, 1, 100]
-0.08397267 -0.034584273 3.5991787e-05 -0.009501876 -0.10131225 -0.025167352 -0.088952914 0.015650818
0.014338647 -0.08787881 0.013892166 0.00556629 0.0035750838 0.071130335 -0.043716803 0.04979413
-0.0451024 -0.04068383 0.075447276 -0.04917255 0.06719585 -0.054134663 0.07721803 -0.00097505003
-0.08291334 -0.06545294 -0.015795536 -0.0032780955 -0.020544615 0.035127178 0.0102389855 -0.04489347
0.016597504 -0.12084538 -0.036044437 0.035451993 -0.015430184 -0.029795798 -0.073744565 -0.090823516
0.0021924437 0.003090861 -0.011327384 0.034177683 -0.031326674 -0.03943428 0.017419226 0.017575776
-0.0381691 -0.015296903 0.055687685 0.011627789 0.031732835 0.021332467 -0.0125533985 -0.056490693
0.035497285 -0.02792014 -0.010121886 -0.036830317 0.0011049149 0.110437974 0.0007554159 0.062917
0.00662284 0.045518115 0.0007184081 0.07794717 0.047987286 0.06972557 0.044439524 0.12569626
0.059531678 -0.029868226 0.058901973 0.06015494 -0.029989062 -0.0007678964 0.087921314 0.009929699
-0.06320473 0.07662678 0.019290594 0.017314905 0.041926026 -0.026405595 -0.047359105 -0.024774728
0.09845989 0.04195605 0.05016419 0.016827505 0.0072385008 0.073389135 -0.050386004 -0.053510975
-0.053344913 0.05886878 0.08134818 0.09377752 0.025651077 0.012562711 -0.008670139 0.040955525
-0.0035955217 -0.031116746 0.028813194 0.07011882 -0.019430874 0.06996306 0.027402554 0.06214891
0.07016566 0.02549605 0.02072784 0.10481014 0.10334111 -0.029635996 0.10305077 0.02029544
0.06698786 0.07693566 0.053125896 -0.034189496 0.041900434 0.09909603 -0.05314438 0.09368168
-0.022207154 -0.004320257 -0.033165164 -0.03140613 0.066818886 -0.0707683 -0.038426228 -0.004199163
-0.05755213 -0.0799422 -0.039259937 -0.04871306 -0.076379314 -0.037719052 -0.0441767 -0.06257908
-0.06821836 -0.04635468 -0.10204316 -0.00772854 0.019109968 0.01485014 -0.107753254 -0.1125371
0.007265597 0.032075178 -0.06382074 -0.04778445 -0.010067503 -0.033257935 -0.08913745 -0.013705258
-0.025524778 0.03477685 -0.0629331 0.028584221 -0.0290929 0.055921614 -0.025663061 -0.0076425103
0.056396607 0.020723343 -0.037382126 0.0038659878 -0.00950747 -0.0026565024 -0.0058328067 -0.0058766613
0.0319563 -0.031286784 0.043697204 0.032849856 -0.025959704 0.058873508 0.087494984 0.011192461
-0.019037781 -0.026461884 0.034991737 -0.018187309 -0.019444143 0.03178883 0.0656369 -0.032537386
-0.013565231 0.042962324 0.05298081 -0.06168851 0.065922916 -0.0052896175 0.00041084382 -0.004410863
0.118422486 0.06499351 -0.035682738 0.09521098 -0.0041652774 0.09678417 0.08091749 0.007635535
0.030663298 0.07041628 0.07779421 0.04439224 0.0118836295 -0.09435215 0.056544527 0.013464648
0.012790063 0.021039657 -0.067801185 0.04491887 -0.07466246 -0.018647805 -0.03851893 -0.0717753
0.007144392 0.016276445 0.004594173 -0.026067069 -0.015909804 0.043191373 0.019885493 -0.070627145
-0.046167832 -0.09021755 0.05546584 0.032497026 -0.024243947 -0.03192476 -0.07412104 -0.0147194285
-0.08891321 0.057541594 -0.0042962106 0.036726013 -0.010759397 0.054960206 -0.031620912 -0.006627045
-0.025525345 0.031343315 -0.033463925 -0.026201602 -0.014538048 0.06344164 0.048120346 0.060705964
00000000: ddf9 abbd 3da8 0dbd e3f5 1638 c2ad 1bbc
00000010: cc7c cfbd c32b cebc f22c b6bd 2536 803c
00000020: a5ec 6a3c cef9 b3bd f89b 633c 6d65 b63b
00000030: f44b 6a3b c8ac 913d 6410 33bd eef4 4b3d
00000040: 4bbd 38bd 16a4 26bd 1a84 9a3d 2869 49bd
00000050: fa9d 893d 4fbc 5dbd 7d24 9e3d 809a 7fba
00000060: 78ce a9bd 310c 86bd a465 81bc 51d5 56bb
00000070: 2e4d a8bc 84e1 0f3d 6bc1 273c 37e2 37bd
00000080: 7df7 873c c87d f7bd 55a3 13bd 1c36 113d
00000090: e2ce 7cbc 5116 f4bc 6407 97bd ae01 babd
000000a0: 1aaf 0f3b 0b90 4a3b 7e96 39bc e6fd 0b3d
000000b0: 6650 00bd d785 21bd c4b2 8e3c 13fb 8f3c
000000c0: 3457 1cbd dd9f 7abc c518 643d 7b82 3e3c
000000d0: 4afa 013d 6dc1 ae3c c5ac 4dbc c962 67bd
000000e0: 9a65 113d c7b8 e4bc 44d6 25bc 63db 16bd
000000f0: cbd2 903a 4e2d e23d 1a07 463a a1da 803d
00000100: 6904 d93b 3471 3a3d 8d53 3c3a c4a2 9f3d
00000110: 518e 443d 48cc 8e3d 3806 363d 85b6 003e
00000120: 7dd7 733d 36ae f4bc 3243 713d 0765 763d
00000130: 9fab f5bc a84c 49ba 1710 b43d 2db0 223c
00000140: 7b71 81bd 80ee 9c3d 4f07 9e3c fdd7 8d3c
00000150: a0ba 2b3d 8c50 d8bc 9ffb 41bd 5ff4 cabc
00000160: 57a5 c93d 1bda 2b3d f778 4d3d d6d9 893c
00000170: f230 ed3b 0b4d 963d 8e61 4ebd 532e 5bbd
00000180: 3280 5abd 6420 713d e099 a63d 6e0e c03d
00000190: 3522 d23c d4d3 4d3c 330d 0ebc fbc0 273d
000001a0: d8a2 6bbb 8ce8 febc a609 ec3c 759a 8f3d
000001b0: 7f2d 9fbc cb48 8f3d 527b e03c db8f 7e3d
000001c0: 03b3 8f3d 18dd d03c 6ecd a93c b3a6 d63d
000001d0: 81a4 d33d 30c7 f2bc 480c d33d 9f42 a63c
000001e0: ee30 893d 7190 9d3d 8a9a 593d 490a 0cbd
000001f0: ca9f 2b3d dcf2 ca3d ecad 59bd 2edc bf3d
00000200: c7eb b5bc f190 8dbb 32d8 07bd b7a3 00bd
00000210: 57d8 883d f8ee 90bd d264 1dbd 2299 89bb
00000220: c8bb 6bbd bcb8 a3bd 07cf 20bd 5887 47bd
00000230: c26c 9cbd 4b7f 1abd a1f2 34bd 7629 80bd
00000240: 11b6 8bbd 68de 3dbd 01fc d0bd b13f fdbb
00000250: 828c 9c3c 004e 733c bdad dcbd da79 e6bd
00000260: 3f14 ee3b 4361 033d 73b4 82bd a1b9 43bd
00000270: 2bf2 24bc 7939 08bd b28d b6bd 058c 60bc
00000280: 5719 d1bc 2c72 0e3d 12e3 80bd 7529 ea3c
00000290: 3c54 eebc 100e 653d 573b d2bc 066e fabb
000002a0: 2100 673d 00c4 a93c 001e 19bd 835c 7d3b
000002b0: 38c5 1bbc b718 2ebb 2121 bfbb 0291 c0bb
000002c0: 9ce4 023d 9226 00bd d7fb 323d 928d 063d
000002d0: 72a9 d4bc 5925 713d 9230 b33d 9560 373c
000002e0: 1ff5 9bbc 98c6 d8bc 7f53 0f3d 8dfd 94bc
000002f0: 5349 9fbc 0135 023d a46c 863d ec45 05bd
00000300: b440 5ebc 43f9 2f3d 6802 593d 17ad 7cbd
00000310: 9802 873d 8754 adbb 8666 d739 0089 90bb
00000320: 7d87 f23d 511b 853d 1028 12bd f9fd c23d
00000330: e17c 88bb c736 c63d 12b8 a53d 8333 fa3b
00000340: 9931 fb3c 6936 903d 9252 9f3d a3d4 353d
00000350: 8eb3 423c b33b c1bd 3c9b 673d d49a 5c3c
00000360: 6a8d 513c 5c5b ac3c 59db 8abd d9fc 373d
00000370: a2e8 98bd 48c3 98bc 07c6 1dbd eefe 92bd
00000380: 811b ea3b 2e56 853c b78a 963b 9b8a d5bc
00000390: 4755 82bc 70e9 303d e7e6 a23c f7a4 90bd
000003a0: 7b1a 3dbd fbc3 b8bd 2630 633d 9a1b 053d
000003b0: 3e9b c6bc 8ac3 02bd c6cc 97bd c229 71bc
000003c0: 2118 b6bd bcb0 6b3d 3ac7 8cbb 046e 163d
000003d0: 2f48 30bc f41d 613d ee84 01bd af27 d9bb
000003e0: 871a d1bc d961 003d 7811 09bd bea4 d6bc
000003f0: fe30 6ebc b1ed 813d d719 453d d1a6 783d

bnorm_temporal.weight f4 [8]
0.984202 1.0592102 0.96443594 0.96956605 1.0395573 0.9606009 1.1060807 1.0273898
00000000: aaf4 7b3f 3394 873f 46e5 763f 7b35 783f
00000010: 3710 853f f1e9 753f 0d94 8d3f 8281 833f

bnorm_temporal.bias f4 [8]
0.0015628082 0.012361034 -0.009483942 -0.0007667065 0.0055384217 0.0023557977 -0.005857094 0.0044436334
00000000: 24d7 cc3a ef85 4a3c 8962 1bbc cdfc 48ba
00000010: a67b b53b ba63 1a3b deec bfbb e69b 913b

bnorm_temporal.running_mean f4 [8]
-0.015085755 -0.009398258 -0.018340046 0.09827159 0.090867996 -0.010481958 -0.0017747662 0.016432691
00000000: 3e2a 77bc 27fb 19bc dd3d 96bc 9e42 c93d
00000010: 0019 ba3d 85bc 2bbc 469f e8ba da9d 863c

bnorm_temporal.running_var f4 [8]
38.039883 39.722343 14.5035305 43.435085 57.600533 10.672726 22.118206 22.403864
00000000: d728 1842 aee3 1e42 760e 6841 87bd 2d42
00000010: f266 6642 7cc3 2a41 16f2 b041 1d3b b341

conv_spatial.weight f4 [16, 1, 19, 1]
0.048407517 -0.022034274 0.0506319 -0.19469808 -0.20820847 0.19013178 -0.048794564 0.0505476
-0.13461801 0.08869189 -0.002737362 -0.020465303 -0.05217444 0.12169007 0.060661785 -0.0044582915
0.08305601 0.037761178 -0.013779509 0.03550247 -0.012602223 0.13568118 0.003760446 -0.086808585
-0.09965519 0.064741865 0.014769665 0.047721796 0.06731844 0.025510786 0.009371689 -0.04097628
0.06060176 0.0033313944 0.0033132934 -0.013637039 -0.07223622 -0.106972076 0.069941305 -0.040006835
-0.22399263 0.1308416 -0.16629271 0.20474401 -0.0311082 -0.10813293 -0.01315726 -0.020269256
0.003749622 -0.08428386 0.12251111 -0.017980205 0.12114245 -0.06166713 -0.009435143 0.07063644
0.046565235 -0.0026274319 -0.00321553 0.008249679 -0.06591518 0.08785386 -0.025036812 -0.0670604
0.12910666 0.034182552 -0.091245376 -0.01799396 0.0146645 0.05689465 0.06586122 0.10082747
-0.07988466 0.05458483 0.14658152 -0.026801432 0.087281115 -0.10047551 0.0859554 -0.08785976
-0.044275977 0.033562575 0.06258608 0.061808877 -0.11168615 0.044322688 -0.016872521 -0.055027727
-0.0695047 0.050588276 -0.02890765 -0.16100517 -0.14061928 -0.019494876 -0.10570563 0.027424976
0.007523426 -0.16078204 -0.049142353 -0.083455436 0.104003206 -0.024641551 0.019438246 0.14025617
-0.06393539 0.1902682 -0.076981805 -0.015504837 -0.1207826 -0.035276063 -0.12418185 0.031410936
-0.12247783 0.08568534 -0.07139891 0.092803076 -0.07732759 -0.04880504 -0.21202956 0.08229615
-0.0060738577 0.10593885 -0.052238412 -0.0009065488 -0.04385878 0.09686451 -0.073339075 -0.034386516
0.06857839 0.05961642 0.09613367 0.06244033 0.08573033 0.023227373 0.012845951 0.15658566
-0.12610541 0.03426909 -0.19475505 0.014331668 -0.059045386 4.526542e-05 -0.028526943 0.10720043
-0.11456584 0.0062716655 -0.09869424 0.10937964 0.076166205 -0.069943294 0.033637017 -0.09049783
0.05126255 -0.032919347 0.030103046 -0.03832238 -0.07811037 0.073303275 0.04656039 -0.12311802
-0.039179817 -0.12854984 -0.01725965 -0.1255332 -0.115339525 -0.05934037 0.15841794 -0.041534048
-0.10117089 -0.11016225 0.069813445 -0.055946004 0.018981514 0.049892295 0.015913367 0.16165286
-0.16204597 0.11424584 0.11319183 -0.05309252 -0.07088276 -0.08216009 0.091668494 -0.04389435
0.14689635 -0.11098494 0.006371347 -0.07565271 -0.06769611 -0.020630807 0.029905964 -0.022633957
-0.04992269 0.15327737 0.12177326 -0.010798903 0.13808331 -0.046516713 -0.08339055 0.01308833
-0.04674972 0.00056287117 0.016206456 0.071803555 -0.075402066 0.042218223 -0.13346842 0.0029258637
0.031843398 -0.008088853 -0.0065559717 -0.07126327 0.10776438 -0.11876602 0.032073345 0.059937865
-0.13374609 0.115993425 0.03059536 0.13479431 -0.08323032 -0.09449765 -0.00465279 -0.04859202
0.14838567 0.022079546 -0.07263333 -0.09362617 -0.0003430825 0.06348347 -0.07267213 -0.12862283
0.118936285 -0.16008545 0.015267784 -0.03335941 0.013519582 0.059422445 -0.14134867 -0.16876689
-0.1052671 0.07994491 -0.22375754 -0.02322227 0.022045508 0.037777264 -0.0036363746 -0.0031989275
-0.0035885803 -0.20442764 0.16784494 0.015345293 0.02497458 0.08844688 -0.06191899 0.0038521916
00000000: f646 463d 3981 b4bc 6563 4f3d ef5e 47be
00000010: 9a34 55be e8b1 423e cfdc 47bd 000b 4f3d
00000020: 4ed9 09be 18a4 b53d 5065 33bb daa6 a7bc
00000030: deb4 55bd a538 f93d 7e78 783d dc16 92bb
00000040: 4519 aa3d 77ab 1a3d 73c3 61bc 0a6b 113d
00000050: 8e79 4ebc 02f0 0a3e d171 763b b3c8 b1bd
00000060: 0518 ccbd 6297 843d 77fc 713c ee77 433d
00000070: 40de 893d fffb d03c b68b 193c bed6 27bd
00000080: 8d39 783d 8653 5a3b d723 593b e36d 5fbc
00000090: 95f0 93bd 2d14 dbbd 633d 8f3d 35de 23bd
000000a0: 535e 65be 57fb 053e a348 2abe 6aa8 513e
000000b0: a0d6 febc cc74 ddbd 8c91 57bc b60b a6bc
000000c0: 38bc 753b 049d acbd 1be7 fa3d 394b 93bc
000000d0: 8819 f83d ac96 7cbd dc95 1abc d6a9 903d
000000e0: 30bb 3e3d fe30 2cbb a4bb 52bb a929 073c
000000f0: 8afe 86bd b9ec b33d 001a cdbc f756 89bd
00000100: 8934 043e 0103 0c3d dbde babd 1268 93bc
00000110: 5f43 703c 5d0a 693d 3fe2 863d a27e ce3d
00000120: 929a a3bd 5894 5f3d 7719 163e ad8e dbbc
00000130: 71c0 b23d 1bc6 cdbd 6209 b03d d1ef b3bd
00000140: ba5a 35bd e978 093d 212d 803d 4e2b 7d3d
00000150: b5bb e4bd b58b 353d 3e38 8abc c164 61bd
00000160: 7b58 8ebd a735 4f3d bccf ecbc 8ade 24be
00000170: 80fe 0fbe b8b3 9fbc 317c d8bd 58aa e03c
00000180: 1287 f63b 0ca4 24be 7e49 49bd afea aabd
00000190: a2ff d43d 14dd c9bc f53c 9f3c 509f 0f3e
000001a0: 8ff0 82bd abd5 423e a3a8 9dbd 0008 7ebc
000001b0: de5c f7bd a27d 10bd 0e53 febd c1a8 003d
000001c0: a8d5 fabd cc7b af3d 9739 92bd 8a0f be3d
000001d0: ed5d 9ebd cbe7 47bd 471e 59be e28a a83d
000001e0: 3607 c7bb 78f6 d83d f2f7 55bd 76a5 6dba
000001f0: 44a5 33bd e660 c63d cc32 96bd e0d8 0cbd
00000200: d472 8c3d 5930 743d bbe1 c43d 6ec1 7f3d
00000210: 6293 af3d 5547 be3c d377 523c fe57 203e
00000220: c721 01be bf5d 0c3d de6d 47be 5fcf 6a3c
00000230: 93d9 71bd 60db 3d38 56b1 e9bc e68b db3d
00000240: 7fa1 eabd 8b82 cd3b 3520 cabd 6f02 e03d
00000250: 07fd 9b3d 6e3e 8fbd f8c6 093d ed56 b9bd
00000260: aef8 513d 70d6 06bd aa9a f63c eef7 1cbd
00000270: 54f8 9fbd 0720 963d 1cb6 3e3d 4d25 fcbd
00000280: 047b 20bd 92a2 03be 1c64 8dbc c68b 00be
00000290: 2137 ecbd e30e 73bd 5038 223e 9b1f 2abd
000002a0: af32 cfbd bf9c e1bd 5afa 8e3d a327 65bd
000002b0: 1f7f 9b3c dd5b 4c3d c05c 823c 5488 253e
000002c0: 61ef 25be b9f9 e93d 1ed1 e73d 8b77 59bd
000002d0: fb2a 91bd 8d43 a8bd b1bc bb3d 90ca 33bd
000002e0: ff6b 163e 124c e3bd bbc6 d03b cfef 9abd
000002f0: 42a4 8abd f001 a9bc 5afd f43c d96a b9bc
00000300: bc7b 4cbd bef4 1c3e 4264 f93d e2ed 30bc
00000310: b665 0d3e 4f88 3ebd aac8 aabd 6f70 563c
00000320: a27c 3fbd a58d 133a 67c3 843c be0d 933d
00000330: 666c 9abd 04ed 2c3d f2ab 08be d9bf 3f3b
00000340: 396e 023d 1c87 04bc 7ad3 d6bb 7af2 91bd
00000350: 92b3 dc3d 993b f3bd 575f 033d 6881 753d
00000360: bcf4 08be f68d ed3d 1fa3 fa3c 8507 0a3e
00000370: a874 aabd fc87 c1bd 6e76 98bb 6d08 47bd
00000380: 6af2 173e 2ae0 b43c c9c0 94bd 14bf bfbd
00000390: c1df b3b9 9f03 823d 20d5 94bd b4b5 03be
000003a0: de94 f33d 71ed 23be ba25 7a3c e0a3 08bd
000003b0: 3d81 5d3c f364 733d b5bd 10be 3ad1 2cbe
000003c0: 4796 d7bd 28ba a33d b220 65be a13c bebc
000003d0: c898 b43c 55bc 1a3d 3e50 6ebb 19a5 51bb
000003e0: 632e 6bbb 7b55 51be 8bdf 2b3e d36a 7b3c
000003f0: 7e97 cc3c a323 b53d c49e 7dbd 0d75 7c3b

bnorm_1.weight f4 [16]
0.9945667 0.9295662 1.0750898 0.9964085 0.9931898 0.9032174 1.0239431 0.95811725
0.95561713 1.0605179 1.0055972 0.9659035 0.94208455 1.1050098 1.0172819 1.0129534
00000000: ec9b 7e3f 0df8 6d3f 8b9c 893f a114 7f3f
00000010: b041 7e3f 4139 673f 9110 833f 2c47 753f
00000020: 53a3 743f 0dbf 873f 69b7 803f 7445 773f
00000030: 742c 713f f670 8d3f 4b36 823f 75a8 813f

bnorm_1.bias f4 [16]
0.11393421 -0.09155983 0.02974224 -0.0742293 -0.028011654 -0.029361794 -0.04727312 0.06320708
-0.01799069 -0.088375635 -0.024916762 -0.037532378 -0.041395035 -0.013183973 -0.016622325 0.080414385
00000000: 5756 e93d b883 bbbd 00a6 f33c 8805 98bd
00000010: b278 e5bc 2588 f0bc 76a1 41bd b772 813d
00000020: 3661 93bc 49fe b4bd 3d1e ccbc 8dbb 19bd
00000030: d78d 29bd 9701 58bc 8b2b 88bc 4cb0 a43d

bnorm_1.running_mean f4 [16]
0.00072784827 0.0012817392 0.00075382256 0.0040756785 0.0046870057 0.0024204392 0.0061632073 -0.0033546358
-0.00378213 0.0029893187 2.284304e-05 0.0007149395 0.0006256469 -0.00043664643 -0.0006181385 0.00018718404
00000000: 12cd 3e3a 0800 a83a 2d9c 453a 458d 853b
00000010: 7495 993b 3ba0 1e3b bbf4 c93b 73d9 5bbb
00000020: 9ddd 77bb 72e8 433b 0e9f bf37 c76a 3b3a
00000030: 7402 243a b1ed e4b9 930a 22ba d546 4439

bnorm_1.running_var f4 [16]
0.028182523 0.03448245 0.022417763 0.01884174 0.06211683 0.05251511 0.07853519 0.08232708
0.08897004 0.04985787 0.022914585 0.04368103 0.17228031 0.028720355 0.030218197 0.02437007
00000000: 09df e63c 783d 0d3d 75a5 b73c fe59 9a3c
00000010: 386e 7e3d 151a 573d 0fd7 a03d 1a9b a83d
00000020: ed35 b63d c437 4c3d 5eb7 bb3c e1ea 323d
00000030: 406a 303e f346 eb3c 278c f73c bea3 c73c

conv_separable_depth.weight f4 [16, 1, 1, 16]
-0.082690865 0.007930906 -0.18756081 -0.095163815 -0.13792706 -0.0836521 0.06078163 0.06273033
-0.01632767 -0.049446404 -0.010192442 -0.10019245 0.0017475244 0.06633455 0.010235638 -0.07432308
0.10431253 -0.031971745 -0.00027065643 -0.12397275 0.036713004 -0.10151671 0.0977445 0.0009481397
0.123571604 -0.0304318 0.020705068 -0.048150104 0.15926972 -0.10536118 0.011668349 -0.064134866
0.031057568 0.078727424 0.14004727 -0.059845805 0.07820278 -0.021306932 0.053022396 0.16686548
0.17963645 -0.02062433 0.09556846 0.043534696 0.07094075 -0.15663409 -0.12735751 -0.20513418
-0.056145236 -0.0003159806 0.070240535 0.042118087 -0.17728163 -0.027249038 -0.08751082 0.008956281
-0.010672807 -0.0024442552 0.118978485 0.054327164 0.027868392 0.07166903 0.07235295 0.13357015
-0.034856863 -0.0581385 0.017753918 0.07623079 0.12661374 0.13469455 0.13786544 0.021339625
0.06909682 -0.07989555 0.027059682 -0.05148263 0.03598684 -0.18928216 0.011995818 0.022416955
0.08614819 -0.04526274 0.0250105 -0.070116356 -0.012698057 -0.05612169 0.088778 0.014240311
0.09503054 0.05087154 0.03556238 0.011118653 -0.16028821 0.046318594 0.0547967 -0.07138486
0.14723782 0.066776566 -0.07831574 0.12275075 0.08951457 0.124081895 -0.1400116 -0.15591072
0.06485511 0.014413362 -0.014588792 -0.06336233 -0.0644702 0.104534894 0.08406967 -0.037727058
-0.08590861 -0.100365125 0.062412217 0.02756703 -0.03481889 0.0980157 -0.08821312 0.08677405
0.025404904 0.08925023 0.047911808 0.041940663 0.012040378 0.10604164 0.03804557 0.060467865
-0.06832579 -0.09511538 -0.053057507 -0.070155166 0.05004257 -0.06525522 0.08168882 -0.09090951
0.077374734 0.08334386 -0.10666642 -0.042407773 0.07088303 0.02298792 0.057788383 0.055467736
-0.0194881 -0.10485434 -0.13143173 0.09038083 -0.11951042 0.12362291 0.05674331 0.117045164
0.09412788 0.17187281 -0.104421705 -0.068492465 0.03561282 0.08907075 0.025098199 0.03559744
0.035507847 0.047132034 0.1198401 0.055421513 0.065342136 -0.016650487 0.12970808 0.08182054
-0.014634216 -0.08833627 -0.09965878 -0.010702651 -0.039364975 -0.049411498 -0.089990504 -0.14588304
0.01744499 0.0017241775 -0.084492326 0.08107095 -0.004982618 -0.023188295 0.04811104 0.055147137
0.10124985 0.11229777 -0.101400256 -0.13340306 -0.14247364 -0.05794064 0.060538165 -0.051030733
-0.059482723 -0.05530841 0.14025266 0.06185978 0.0098858485 -0.0003970098 0.13376334 -0.00023257041
-0.0028208094 -0.102896355 0.112935 -0.12296363 -0.011111961 -0.018267179 -0.08271998 0.059206754
-0.052471593 -0.106411405 -0.17274104 -0.1291057 0.052603833 -0.17163329 0.0568468 -0.082834326
0.048499312 0.042713195 0.0982517 -0.14629546 -0.17802793 -0.051241945 -0.03277456 0.07381078
0.014605969 -0.024750391 -0.037345044 0.013090589 -0.062012892 0.029735317 0.04017085 -0.08196676
-0.05697244 -0.13616523 -0.025687333 -0.08573109 -0.046906214 -0.0044342265 -0.07942308 0.09567477
-0.07205487 0.08718413 0.0015381637 -0.05381822 0.033619106 0.06795027 -0.09665261 0.074475914
0.116891846 -0.07761349 0.100958176 -0.124026395 -0.036595967 -0.1591903 -0.15831216 -0.07598332
00000000: d459 a9bd a1f0 013c f10f 40be 3fe5 c2bd
00000010: c03c 0dbe cb51 abbd 29f6 783d c278 803d
00000020: 9bc1 85bc 5088 4abd 33fe 26bc b331 cdbd
00000030: 300d e53a 69da 873d 61b3 273c b336 98bd
00000040: cfa1 d53d cef4 02bd e4e6 8db9 6de5 fdbd
00000050: 6060 163d fee7 cfbd 452e c83d 948c 783a
00000060: 1c13 fd3d 1c4c f9bc ad9d a93c 0b39 45bd
00000070: 9a17 233e 9ac7 d7bd 9a2c 3f3c 2459 83bd
00000080: 716c fe3c d83b a13d 8d68 0f3e e020 75bd
00000090: c728 a03d e08b aebc 032e 593d c9de 2a3e
000000a0: 9ef2 373e 5bf4 a8bc 66b9 c33d 7051 323d
000000b0: 6249 913d b064 20be 026a 02be b20e 52be
000000c0: 8cf8 65bd 33aa a5b9 45da 8f3d 0484 2c3d
000000d0: 5189 35be 6039 dfbc df38 b3bd 5dbd 123c
000000e0: ffdc 2ebc cc2f 20bb feaa f33d 2986 5e3d
000000f0: 414c e43c 36c7 923d c92d 943d 9dc6 083e
00000100: 12c6 0ebd a322 6ebd aa70 913c e31e 9c3d
00000110: 08a7 013e 5eed 093e 992c 0d3e 70d0 ae3c
00000120: a282 8d3d 47a0 a3bd 44ac dd3c 73df 52bd
00000130: f066 133d 2fd3 41be 1b8a 443c c3a3 b73c
00000140: 766e b03d 6c65 39bd d2e2 cc3c 2a99 8fbd
00000150: 830b 50bc dbdf 65bd 3dd1 b53d 3250 693c
00000160: 5f9f c23d ad5e 503d dca9 113d 032b 363c
00000170: 9822 24be 91b8 3d3d 8172 603d 3a32 92bd
00000180: 83c5 163e 27c2 883d 0164 a0bd bf64 fb3d
00000190: 6a53 b73d a61e fe3d 335f 0fbe 0fa7 1fbe
000001a0: c2d2 843d 0626 6c3c d405 6fbc 1cc4 81bd
000001b0: f408 84bd 6416 d63d b82c ac3d b087 1abd
000001c0: daf0 afbd 3b8c cdbd f4a3 7f3d 41d4 e13c
000001d0: 419e 0ebd 75bc c83d 15a9 b4bd 98b6 b13d
000001e0: f21d d03c d3c8 b63d 2c3f 443d f9c9 2b3d
000001f0: 0145 453c 5c2c d93d acd5 1b3d 27ad 773d
00000200: 64ee 8bbd dacb c2bd d452 59bd 83ad 8fbd
00000210: 70f9 4c3d 87a4 85bd 784c a73d c42e babd
00000220: a576 9e3d 30b0 aa3d ed73 dabd c6b3 2dbd
00000230: 1f2b 913d 2a51 bc3c 83b3 6c3d 2332 633d
00000240: 82a5 9fbc dfbd d6bd 0a96 06be 9619 b93d
00000250: e1c1 f4bd 022e fd3d ac6b 683d 60b5 ef3d
00000260: 1ec6 c03d 6dff 2f3e 0cdb d5bd c745 8cbd
00000270: c0de 113d ba6a b63d bd9a cd3c 9fce 113d
00000280: ad70 113d 850d 413d ba6e f53d ab01 633d
00000290: 19d2 853d 9a66 88bc 32d2 043e 8791 a73d
000002a0: 5ac4 6fbc a5e9 b4bd e719 ccbd 2c5a 2fbc
000002b0: 2b3d 21bd b663 4abd f14c b8bd 5d62 15be
000002c0: cce8 8e3c ccfd e13a 500a adbd 8708 a63d
000002d0: 3b45 a3bb 61f5 bdbc 1510 453d f7e1 613d
000002e0: 155c cf3d 60fc e53d f0aa cfbd d09a 08be
000002f0: 9ce4 11be 2a53 6dbd def6 773d 9a05 51bd
00000300: 28a4 73bd 128b 62bd 659e 0f3e ae60 7d3d
00000310: 41f8 213c c125 d0b9 42f9 083e 25de 73b9
00000320: 54dd 38bb 53bb d2bd 774a e73d 5bd4 fbbd
00000330: f10e 36bc 0da5 95bc 1869 a9bd c882 723d
00000340: 74ec 56bd 39ee d9bd 07e3 30be 4934 04be
00000350: 1e77 573d a3c0 2fbe 31d8 683d 0ba5 a9bd
00000360: 37a7 463d 08f4 2e3d 3038 c93d 7ace 15be
00000370: f44c 36be 13e3 51bd 9e3e 06bd 1b2a 973d
00000380: e04d 6f3c 55c1 cabc 1ef7 18bd e979 563c
00000390: 3b01 7ebd 7b97 f33c 308a 243d 30de a7bd
000003a0: ef5b 69bd e66e 0bbe 3e6e d2bc c893 afbd
000003b0: bb20 40bd fd4c 91bb 91a8 a2bd 22f1 c33d
000003c0: 8191 93bd 988d b23d 369c c93a 7e70 5cbd
000003d0: 30b4 093d 8329 8b3d cef1 c5bd d486 983d
000003e0: fe64 ef3d d2f3 9ebd 29c3 ce3d 8d01 febd
000003f0: a7e5 15bd c802 23be 951c 22be 259d 9bbd

conv_separable_point.weight f4 [16, 16, 1, 1]
-0.34703034 -0.041109096 0.3414151 0.11003356 0.29536593 -0.24356584 0.23620598 -0.28107107
0.26545855 0.27437842 0.0084361965 0.43489823 -0.08068999 -0.3259425 -0.23294333 -0.39841485
-0.32624906 -0.33223492 0.41159558 0.2333966 0.3318194 0.1686167 -0.3066865 -0.24415848
0.34993622 -0.44319883 0.12988056 0.05746467 -0.0070590894 -0.30860686 0.41536015 0.08002312
0.16214058 0.059510205 -0.41555798 -0.19965842 -0.25095287 -0.2997376 -0.11720078 0.29598716
0.428396 0.30557397 -0.048995707 0.18553364 0.22319199 0.19308561 0.27501982 0.25633383
-0.17464387 0.21728308 0.23331028 -0.38261145 0.27316198 -0.16562605 0.22096398 0.20949136
0.16996619 -0.23732533 0.04569012 0.21646114 0.00756574 -0.02684368 -0.32005435 -0.34909746
-0.21594012 -0.025131065 -0.21635537 0.36517334 0.037341602 0.24020007 0.43401682 -0.12434513
-0.36809832 -0.30831558 -0.022091104 -0.013143497 0.12744388 -0.57571536 -0.19004883 -0.11942779
0.19477206 0.1047789 -0.09622563 0.4575063 -0.06506821 -0.09293033 0.052648053 0.22964776
0.34326524 -0.019068558 0.1621598 0.17439681 0.12094106 -0.21867664 0.3205371 -0.22945088
0.42367297 -0.00452356 -0.34558713 -0.2900476 -0.3420628 -0.10328918 -0.19283468 -0.20245458
0.04799723 0.09467583 -0.06330261 -0.0748778 -0.14514507 -0.25853944 0.12270391 0.3208605
-0.35887307 0.08380364 -0.19798283 0.15799835 -0.2251068 0.1638538 -0.4272303 0.36753997
-0.15718873 0.27824914 -0.027551228 -0.2715188 -0.39780605 0.080432095 0.4805514 -0.27846095
-0.2732583 -0.054057892 0.3386439 -0.12257325 0.02829196 0.24260111 -0.1561847 -0.30488548
-0.18136905 -0.0070415246 0.37630352 0.2386938 0.3311652 -0.055038 0.28583643 -0.10600196
-0.1984497 -0.337703 -0.31104028 0.40200642 -0.05471929 0.3724512 -0.106020644 0.14023322
0.31941906 0.10321559 0.116443336 0.10926913 -0.324513 0.18474513 0.3645786 -0.08503539
0.3270581 0.35595855 -0.107019186 0.34687924 0.16624741 0.05625549 -0.0828343 -0.13546783
-0.073774055 -0.0006405958 0.0013164834 0.10454333 0.33171162 0.21592718 0.33268657 -0.097079724
0.47377804 0.33435377 -0.1737833 0.31732288 0.14032565 0.067207694 0.24366793 -0.47060928
0.13568935 -0.064730935 0.2613511 -0.08197187 0.22221096 -0.20237403 -0.20924595 -0.25979033
-0.1485091 0.30246332 -0.12255553 -0.10145114 -0.055088706 -0.14467019 -0.23967259 0.0839183
-0.1093361 -0.014142743 -0.4360814 0.107767254 -0.20504832 -0.44587648 0.07480612 -0.033805184
0.08035232 -0.013555915 0.32296613 0.40067938 -0.30959278 -0.11888402 -0.08771009 -0.3794115
-0.37520647 -0.16676424 -0.23234434 0.2699942 -0.3888642 0.3507496 -0.06457996 -0.08616134
0.42102253 -0.11473079 -0.45297512 -0.19077028 -0.21458016 -0.25741935 -0.2105494 -0.005689911
-0.380757 -0.15816565 0.29537615 0.058261376 0.20341729 -0.13885348 0.09314481 0.39336506
-0.2003647 -0.23962383 0.27011675 -0.043937996 -0.093010396 -0.21398102 -0.36347872 0.023657367
0.1193036 0.29065442 0.2121408 0.19677694 -0.30112493 -0.2379657 0.1862224 -0.006645117
00000000: f6ad b1be 0362 28bd f6cd ae3e 4659 e13d
00000010: 343a 973e 5369 79be fbdf 713e 8ce8 8fbe
00000020: 2fea 873e 547b 8c3e f937 0a3c fbaa de3e
00000030: cb40 a5bd efe1 a6be b288 6ebe 08fd cbbe
00000040: 1e0a a7be b21a aabe a8bc d23e 85ff 6e3e
00000050: 3be4 a93e dba9 2c3e 0306 9dbe ae04 7abe
00000060: d72a b33e f5ea e2be 69ff 043e 1360 6b3d
00000070: ef4f e7bb b801 9ebe 16aa d43e 29e3 a33d
00000080: 2e08 263e f9c0 733d 04c4 d4be 4273 4cbe
00000090: e57c 80be 3577 99be f606 f0bd a18b 973e
000000a0: b856 db3e 3174 9c3e b9af 48bd 88fc 3d3e
000000b0: 718c 643e 3cb8 453e 66cf 8c3e 303e 833e
000000c0: d8d5 32be 757f 5e3e e4e8 6e3e a6e5 c3be
000000d0: e3db 8b3e e099 29be 6244 623e e784 563e
000000e0: 9e0b 2e3e 6905 73be 9025 3b3d fda7 5d3e
000000f0: 07ea f73b 47e7 dbbc 2ade a3be e7bc b2be
00000100: 681f 5dbe aadf cdbc 438c 5dbe 00f8 ba3e
00000110: 82f3 183d 02f7 753e 7437 de3e a9a8 febd
00000120: 6277 bcbe 8adb 9dbe 67f8 b4bc d257 57bc
00000130: a680 023e 1562 13bf 299c 42be 8f96 f4bd
00000140: 5472 473e 5296 d63d f111 c5bd 443e ea3e
00000150: 7b42 85bd 4252 bebd 7ca5 573d c828 6b3e
00000160: 76c0 af3e aa35 9cbc 380d 263e 1495 323e
00000170: f2af f73d c5ec 5fbe 701d a43e 2cf5 6abe
00000180: aaeb d83e 5f3a 94bb ccf0 b0be 1e81 94be
00000190: db22 afbe 4789 d3bd 7476 45be 4150 4fbe
000001a0: be98 443d 67e5 c13d cca4 81bd 8859 99bd
000001b0: e9a0 14be 485f 84be 304c fb3d d447 a43e
000001c0: 36be b7be 3ea1 ab3d 03bc 4abe 52ca 213e
000001d0: 6682 66be 4ac9 273e eebd dabe 332e bc3e
000001e0: 15f6 20be ac76 8e3e 1db3 e1bc 8304 8bbe
000001f0: 3cad cbbe 95b9 a43d d50a f63e 6f92 8ebe
00000200: 83e8 8bbe cf6b 5dbd bc62 ad3e af07 fbbd
00000210: 8ac4 e73c 6d6c 783e e2ee 1fbe f319 9cbe
00000220: cfb8 39be 97bc e6bb dbaa c03e 266c 743e
00000230: 7c8e a93e 876f 61bd 2759 923e 8e17 d9bd
00000240: 6636 4bbe 68e7 acbe ac40 9fbe c9d3 cd3e
00000250: 5621 60bd ecb1 be3e 5a21 d9bd 4c99 0f3e
00000260: e58a a33e b262 d33d d879 ee3d 7ec8 df3d
00000270: 9126 a6be d42d 3d3e 0caa ba3e 0927 aebd
00000280: 2974 a73e 3340 b63e e02c dbbd 289a b13e
00000290: c33c 2a3e 286c 663d 08a5 a9bd 14b8 0abe
000002a0: da16 97bd a8ed 27ba da8d ac3a d01a d63d
000002b0: 1bd6 a93e 041c 5d3e e555 aa3e bcd1 c6bd
000002c0: 0993 f23e 6b30 ab3e 40f4 31be 2578 a23e
000002d0: 87b1 0f3e 30a4 893d 1684 793e b3f3 f0be
000002e0: 26f2 0a3e a791 84bd d0cf 853e dee0 a7bd
000002f0: 458b 633e 233b 4fbe 9244 56be 3d03 85be
00000300: c512 18be 79dc 9a3e 65fe fabd 9ec5 cfbd
00000310: b2a4 61bd 6c24 14be bb6c 75be 5cdd ab3d
00000320: 9beb dfbd f7b6 67bc 1046 dfbe 14b5 dc3d
00000330: 30f8 51be ec49 e4be f333 993d 4e77 0abd
00000340: c28f a43d a119 5ebc d15b a53e d925 cd3e
00000350: f282 9ebe 7779 f3bd 59a1 b3bd 3942 c2be
00000360: 101b c0be 3fc4 2abe adeb 6dbe ae3c 8a3e
00000370: 3519 c7be 7495 b33e 8042 84bd 5b75 b0bd
00000380: 4490 d73e faf7 eabd 5bec e7be 4959 43be
00000390: e7ba 5bbe 78cc 83be 439a 57be 6f72 babb
000003a0: 95f2 c2be 2df6 21be 8b3b 973e 7ba3 6e3d
000003b0: 9f4c 503e 9b2f 0ebe b5c2 be3d 2567 c93e
000003c0: 672c 4dbe f35f 75be be4c 8a3e 54f8 33bd
000003d0: 3c7c bebd d71d 5bbe e219 babe 18cd c13c
000003e0: 7255 f43d a8d0 943e 703b 593e e57f 493e
000003f0: 0c2d 9abe 48ad 73be 16b1 3e3e 48bf d9bb

bnorm_2.weight f4 [16]
1.0948412 1.1427279 1.107129 1.0917087 1.0708402 1.0085678 1.1032556 1.005485
1.136407 1.1015377 1.0853624 1.157086 1.1020684 1.0051769 1.0954019 1.0910003
00000000: c223 8c3f e844 923f 67b6 8d3f 1cbd 8b3f
00000010: 4b11 893f c018 813f 7b37 8d3f bcb3 803f
00000020: c975 913f 30ff 8c3f 28ed 8a3f 651b 943f
00000030: 9410 8d3f a3a9 803f 2136 8c3f e6a5 8b3f

bnorm_2.bias f4 [16]
0.0018218502 0.016622009 -0.00056365755 0.02953781 -0.021010755 -0.021809515 -0.007090316 0.009442839
0.01942727 0.044224475 -0.040459692 -0.006008459 -0.0067561376 -0.019702973 0.0016654746 -0.025807586
00000000: 26cb ee3a e12a 883c 6bc2 13ba 47f9 f13c
00000010: bf1e acbc dea9 b2bc e255 e8bb 23b6 1a3c
00000020: f025 9f3c b924 353d 10b9 25bd 9be2 c4bb
00000030: 9762 ddbb 2168 a1bc 0e4c da3a 6e6a d3bc

bnorm_2.running_mean f4 [16]
0.14956626 0.050795484 -0.10719197 0.10209102 0.11396339 0.003475081 -0.13480307 0.044259366
0.028410057 -0.013559833 -0.0861607 -0.036614574 0.050613835 -0.055451673 -0.13970806 0.043244846
00000000: e627 193e ed0e 503d 7787 dbbd 1915 d13d
00000010: a365 e93d 2fbe 633b d109 0abe 4f49 353d
00000020: 35bc e83c 102a 5ebc 0575 b0bd 2af9 15bd
00000030: 7450 4f3d 4b21 63bd a10f 0fbe 8221 313d

bnorm_2.running_var f4 [16]
0.17692085 0.17790796 0.13235208 0.111348905 0.12922731 0.0779113 0.14634915 0.16134264
0.09937784 0.110973395 0.08090422 0.14715345 0.075181104 0.13914832 0.17048901 0.07870465
00000000: bd2a 353e 812d 363e 4e87 073e e50a e43d
00000010: 2a54 043e f68f 9f3d 8ddc 153e 0137 253e
00000020: 9c86 cb3d 0546 e33d 1db1 a53d 65af 163e
00000030: 8df8 993d e67c 0e3e ac94 2e3e e72f a13d

final_layer.conv_classifier.weight f4 [2, 16, 1, 18]
-0.096192665 0.06565593 0.14691941 0.032446668 0.001761145 -0.04861075 0.1078797 0.06635032
-0.06620286 0.06302085 -0.078098975 0.06576859 -0.0028745595 -0.03171757 -0.14286937 -0.09969869
-0.0646742 0.07310358 -0.01366048 -0.084096625 -0.034870606 0.17177239 0.010895102 -0.013290861
0.13873024 0.04756291 -0.018383449 0.24569851 -0.16740869 -0.17084911 -0.030813886 0.20647594
-0.124687485 0.066029884 0.018812982 0.14471038 0.051834732 0.048078116 -0.03438603 0.05187453
0.12889588 -0.08449994 0.067119345 -0.038062338 -0.024112161 -0.26410884 -0.08354175 0.010925226
-0.026708571 -0.09039159 0.01252263 0.025401888 0.04122432 0.0021823973 -0.05546614 0.12739171
0.114749365 -0.037509248 0.096006826 0.026380805 0.04991973 -0.13300133 -0.048393674 0.2106367
-0.019815866 -0.20780557 0.13793167 0.07979577 0.056128617 0.009102382 -0.13038014 -0.04278093
0.051092185 0.09363937 -0.092772014 0.09929315 -0.014618698 0.06715966 -0.14712305 0.09560788
-0.15405445 0.11308732 0.17785586 0.011607822 -0.091157876 0.06966934 0.065346844 -0.11861129
-0.117932186 -0.07995275 -0.022787103 -0.12371055 -0.053558666 0.10913743 -0.005180633 -0.0532098
0.03397294 -0.016025186 -0.13460754 -0.040627286 0.059592504 0.22929528 -0.10751079 0.0067156963
-0.09114837 0.0014005497 -0.08476685 -0.040981196 0.033394825 -0.0744526 -0.10978024 -0.0041272338
-0.002697604 0.03109907 -0.06533068 0.0045887353 0.15305488 -0.06183117 0.2566107 -0.030536093
0.012524309 -0.023069112 -0.0802385 -0.14454338 -0.025658976 0.07656777 -0.0718095 -0.04688094
-0.018455425 -0.07654403 0.014105238 0.036553707 0.09222309 -0.027744245 -0.14069197 -0.15486859
-0.013435168 -0.1565611 0.10584875 -0.03526343 0.12454337 0.03988928 0.08487382 0.057257
0.0001564624 0.082111344 0.08645262 -0.07264836 0.025962085 0.05569627 0.07142041 0.041585676
-0.12391402 0.24317014 -0.20426014 -0.14033446 0.08885866 0.039790582 -0.14461462 0.12504615
0.118602075 0.101228714 -0.08008105 -0.081591636 -0.018345019 0.11292817 -0.040049523 0.04428915
0.07129665 0.026764419 -0.09333198 -0.15417048 -0.17398366 -0.004976711 0.036074962 0.023816362
0.17741333 0.10617381 -0.032320037 0.15194698 -0.010608811 0.08775578 -0.05657899 -0.09078305
0.042989478 0.017628444 0.055652842 0.21116929 -0.02794471 -0.0116181085 -0.12608203 0.25609618
-0.13334648 0.04177625 -0.014414319 0.021444635 -0.05852568 -0.0412425 0.08632789 -0.01960858
-0.027411249 0.04718491 0.073245615 0.04775083 0.023965986 0.025291275 0.029856136 0.031782396
0.000744153 0.13336842 -0.0922889 -0.025282905 -0.05530064 -0.17323305 -0.10058088 -0.10995452
-0.0100569 0.046569522 0.07890383 -0.13492435 -0.026581565 0.021488702 0.006863259 -0.13180497
-0.20723806 0.017228566 0.23379904 -0.17075057 -0.14367986 0.12559862 -0.08307561 -0.08461517
0.079583086 0.034156673 0.13320427 -0.05079071 0.0581927 0.07148132 0.031530477 -0.10477603
0.10934204 -0.059838314 0.122269906 0.018378215 -0.04786413 0.11915667 0.007577939 0.027550807
0.042375557 0.037312407 -0.0023028087 0.010328313 0.036675166 -0.06760782 -0.07440574 -0.04501824
00000000: a900 c5bd 9e76 863d 0b72 163e cce6 043d
00000010: 38d6 e63a 111c 47bd 08f0 dc3d ade2 873d
00000020: 5d95 87bd 1311 813d 5bf2 9fbd afb1 863d
00000030: 1b63 3cbb 48ea 01bd 594c 12be d42e ccbd
00000040: e873 84bd 54b7 953d 35d0 5fbc da3a acbd
00000050: 7bd4 0ebd 1ae5 2f3e 5f81 323c e9c1 59bc
00000060: 4d0f 0e3e 53d1 423d e398 96bc 6498 7b3e
00000070: 2f6d 2bbe 12f3 2ebe 676d fcbc 6e6e 533e
00000080: 275c ffbd ad3a 873d af1d 9a3c f52e 143e
00000090: a850 543d 8fed 443d 5ed8 0cbd 637a 543d
000000a0: 48fd 033e 4e0e adbd de75 893d 41e7 1bbd
000000b0: de86 c5bc 4639 87be f017 abbd b8ff 323c
000000c0: efcb dabc 3a1f b9bd b82b 4d3c 9f17 d03c
000000d0: d5da 283d 8d06 0f3b 7730 63bd f972 023e
000000e0: b701 eb3d 4ca3 19bd 3a9f c43d 8f1c d83c
000000f0: a178 4c3d 8031 08be 7238 46bd 26b1 573e
00000100: e254 a2bc fcca 54be f63d 0d3e f76b a33d
00000110: 1fe7 653d 2822 153c 5f82 05be 0e3b 2fbd
00000120: 0a46 513d ffc5 bf3d 41ff bdbd 355a cb3d
00000130: 4383 6fbc 018b 893d 6da7 16be 10ce c33d
00000140: 73c0 1dbe 539a e73d d91f 363e bc2e 3e3c
00000150: fbb0 babd cdae 8e3d 91d4 853d 7aea f2bd
00000160: 6e86 f1bd 44be a3bd 05ac babc f55b fdbd
00000170: 5560 5bbd 7283 df3d 4dc2 a9bb 85f2 59bd
00000180: 3627 0b3d 4047 83bc 8fd6 09be cc68 26bd
00000190: 4517 743d 62cc 6a3e 9e2e dcbd 580f dc3b
000001a0: ffab babd a692 b73a 3e9a adbd e6db 27bd
000001b0: 03c9 083d 9b7a 98bd 76d4 e0bd bf3d 87bb
000001c0: 49ca 30bb 7ac3 fe3c 17cc 85bd 1a5d 963b
000001d0: 6bba 1c3e ae42 7dbd 7a62 833e d426 fabc
000001e0: c232 4d3c 6ffb bcbc 1554 a4bd 2e03 14be
000001f0: c632 d2bc 90cf 9c3d dc10 93bd 3b06 40bd
00000200: d52f 97bc 1ec3 9cbd a819 673c 57b9 153d
00000210: 76df bc3d e647 e3bc 8e11 10be df95 1ebe
00000220: 2e1f 5cbc 8e51 20be 3bc7 d83d 6370 10bd
00000230: 9810 ff3d f162 233d 53d2 ad3d 5186 6a3d
00000240: 0e10 2439 fe29 a83d 120e b13d aac8 94bd
00000250: 70ae d43c c621 643d dd44 923d be55 2a3d
00000260: a2c6 fdbd 9801 793e 9229 51be d6b3 0fbe
00000270: 87fb b53d 73fb 223d db15 14be 190c 003e
00000280: a5e5 f23d 0051 cf3d 8901 a4bd 8419 a7bd
00000290: 4b48 96bc e246 e73d f80a 24bd 8a68 353d
000002a0: fa03 923d 0e41 db3c d624 bfbd dede 1dbe
000002b0: c628 32be ad13 a3bb 57c3 133d 881a c33c
000002c0: d7ab 353e a871 d93d 0462 04bd fd97 1b3e
000002d0: 94d0 2dbc 4db9 b33d 5fbf 67bd 77ec b9bd
000002e0: bc15 303d 8769 903c 3cf4 633d c33c 583e
000002f0: 4eec e4bc e159 3ebc a61b 01be 0a1f 833e
00000300: fb8b 08be 931d 2b3d 092a 6cbc a9ac af3c
00000310: a0b8 6fbd e5ed 28bd adcc b03d 2ca2 a0bc
00000320: 8e8d e0bc f744 413d cc01 963d 6096 433d
00000330: 5154 c43c a62f cf3c db94 f43c 422e 023d
00000340: 4313 433a bb91 083e f601 bdbd 181e cfbc
00000350: ed82 62bd 0164 31be 59fd cdbd d62f e1bd
00000360: b2c5 24bc afbf 3e3d 5598 a13d 9c29 0abe
00000370: 95c1 d9bc 1309 b03c 30e5 e03b e2f7 06be
00000380: 3736 54be ec22 8d3c 0469 6f3e 3dd9 2ebe
00000390: d020 13be ed9c 003e 8c23 aabd b84a adbd
000003a0: 75fc a23d dee7 0b3d b366 083e eb09 50bd
000003b0: 785b 6e3d cc64 923d 1a26 013d d194 d6bd
000003c0: b8ee df3d 0519 75bd a568 fa3d e98d 963c
000003d0: 2e0d 44bd 6a08 f43d 5c50 f83b 3bb2 e13c
000003e0: fe91 2d3d e5d4 183d b8ea 16bb 1638 293c
000003f0: b338 163d f875 8abd 0962 98bd 0c65 38bd

final_layer.conv_classifier.bias f4 [2]
0.002148507 -0.0021485006
00000000: f7cd 0c3b dccd 0cbb
