left-right/preexisting_shallow_model.pth (torch, 141556 bytes, 9 tensors)

conv_time_spat.conv_time.weight f4 [40, 1, 25, 1]
0	0x3d034621	0.032049302
1	0xbd2749ca	-0.040841855
2	0x3d23b770	0.03996986
3	0x3cd98182	0.026551012
4	0xbd4f42d3	-0.050600838
5	0xbc95648d	-0.018236423
6	0x3cb49ec3	0.02204836
7	0xbd2c5a5e	-0.04207837
8	0x3d33b537	0.04387399
9	0xbd120df0	-0.035657823
10	0x3ccf65d5	0.025317112
11	0xbd722689	-0.05911878
12	0xbd1ffba5	-0.039058346
13	0x3d4f62a1	0.05063117
14	0xbb813552	-0.003943124
15	0x3bcbe34f	0.0062221657
16	0xbd34e90c	-0.044167563
17	0xbcb22b73	-0.021749234
18	0x3cce943c	0.025217168
19	0x3d5eafe9	0.05436698
20	0xbd2808f8	-0.04102418
21	0x3d24bb95	0.040217955
22	0xbd3e5786	-0.046470188
23	0xbd383f4b	-0.044982236
24	0xbd4ea5e0	-0.05045116
25	0xbd89c65b	-0.067272864
26	0xbd962e91	-0.073331006
27	0xbd0c420b	-0.03424267
28	0x3c9e0470	0.019289225
29	0xbd387793	-0.04503591
30	0xbcf112cf	-0.029427914
31	0xbd82eb37	-0.0639252
32	0x3d854203	0.06506731
33	0x3d7132d3	0.05888636
34	0xbce8455a	-0.028353382
35	0xbc77252a	-0.015084544
36	0xbd0318f1	-0.032006208
37	0xbbd77ef8	-0.006576415
38	0xbcadb43e	-0.02120411
39	0x3bd0b2b1	0.006368958
40	0x3c4b8db5	0.012423922
41	0xbd8fab11	-0.0701505
42	0x3d00a46d	0.03140681
43	0x3d62c542	0.0553639
44	0x3cfc6095	0.030807773
45	0x3d506c07	0.050884273
46	0x3cbd0f55	0.0230786
47	0xbd6cb68c	-0.057791278
48	0x3d0b8e5c	0.03407131
49	0xbd5c4f61	-0.05378664
50	0xbcb9c1e0	-0.022675455
51	0x3cc33cc7	0.023832692
52	0x3d48aa8b	0.048990767
53	0xbd96ff01	-0.07372857
54	0x3d2c0e89	0.04200605
55	0xbce8e51a	-0.028429557
56	0xbd8b5741	-0.06803752
57	0x3ce81ddc	0.02833455
58	0xbcbff3ca	-0.023431677
59	0xbd886220	-0.06659341
60	0xbc12a1df	-0.008949726
61	0x3d021539	0.03175852
62	0xbd4a3f44	-0.04937674
63	0xbc63cf23	-0.013904366
64	0x3d8bc053	0.06823792
65	0x3d89fd48	0.06737763
66	0xbd50dbac	-0.050990745
67	0xbd1018aa	-0.03517977
68	0x3d2dabc7	0.042400148
69	0x3cc35a18	0.023846671
70	0x3d963e3c	0.07336089
71	0xbd6e7235	-0.058214385
72	0xbccf0603	-0.025271421
73	0xbd237b6b	-0.039912622
74	0xbcd11a04	-0.0255251
75	0xbd37750e	-0.044789366
76	0xbd599fe8	-0.053131014
77	0x3d50a163	0.05093516
78	0xbbdcc999	-0.0067378995
79	0xbca023b9	-0.019548284
80	0x3c8c9f97	0.017165942
81	0x3dbae73f	0.09126138
82	0x3d74f29c	0.059801683
83	0x3d65842b	0.05603425
84	0x3cc4aafb	0.024007311
85	0x3cf1aa3c	0.02950012
86	0x3cbce14b	0.023056647
87	0xbd590d8f	-0.052991446
88	0xbd9696b5	-0.07352964
89	0x3d48f509	0.04906181
90	0x3cd31d73	0.025770878
91	0x3d84fbb9	0.06493325
92	0x3b18e235	0.002332819
93	0x3d9adba2	0.07561423
94	0x3b1c58e8	0.0023856703
95	0xbd141205	-0.036149997
96	0xbd16685f	-0.03672063
97	0x3d69f953	0.05712254
98	0xbd98b1d7	-0.07455795
99	0xbc78dc3e	-0.015189229
100	0xbbe6dad8	-0.007045131
101	0x3bf670e1	0.0075207804
102	0xbd3d0bd6	-0.046153866
103	0xbd19f51b	-0.037587266
104	0xbd4723a2	-0.048617966
105	0xbd29fa1f	-0.0414983
106	0x3d13f86f	0.036125597
107	0xbd1c8c84	-0.038219944
108	0x3d302900	0.04300785
109	0x3d183361	0.037158374
110	0xbc258c31	-0.010104225
111	0xbd8f866c	-0.07008061
112	0x3d06825b	0.03283916
113	0x3c89f8f4	0.016842343
114	0xbcc90d01	-0.024542334
115	0xb7434158	-1.163812e-05
116	0xbd7f19d2	-0.062280484
117	0x3d1ad85a	0.037803985
118	0x3cc154c0	0.023599982
119	0x3d558c4e	0.052135758
120	0x3d5d4ae3	0.054026496
121	0xbca69805	-0.02033616
122	0xbd8075bf	-0.06272458
123	0xbd82575d	-0.063643195
124	0x3c9f76eb	0.019465884
125	0xbd4a7510	-0.049428046
126	0x3d2a80cb	0.041626733
127	0xbcae0266	-0.021241378
128	0xbd8e6ad7	-0.06953972
129	0x3c017af5	0.00790285
130	0xbd6dbcb1	-0.05804128
131	0xbd724991	-0.05915219
132	0x3d0ad057	0.033890095
133	0xbc66b07a	-0.014080161
134	0x3d6e8bb7	0.05823871
135	0xbd45747f	-0.048206802
136	0x3d0fe3dd	0.035129417
137	0xbce80f3f	-0.028327582
138	0xbd1681ce	-0.036744885
139	0xbcefc86b	-0.029270371
140	0xbd13d3f9	-0.036090825
141	0x3d64e0a5	0.0558783
142	0x3d8cef4f	0.06881582
143	0xbd3e78bb	-0.046501856
144	0x3cac8932	0.021061514
145	0xbd40ca5b	-0.04706798
146	0x3d0207c1	0.031745676
147	0xbcf26ea3	-0.029593771
148	0xbd53c883	-0.051704895
149	0xbcec3288	-0.028832689
150	0xbb3b6eed	-0.0028600052
151	0x3d8a6377	0.06757253
152	0x3d332283	0.043734085
153	0x3d97ca57	0.0741164
154	0x3d8bc5da	0.068248466
155	0xbd8f8b71	-0.07009018
156	0x3cd4214f	0.025894789
157	0x3ccc30da	0.024925638
158	0x3d185815	0.037193377
159	0x3b475b0e	0.0030419263
160	0x3d2958c8	0.041344434
161	0x3d7b1684	0.06130077
162	0x3d7ad732	0.061240382
163	0xbbe846f8	-0.0070885383
164	0x3d42663b	0.047460776
165	0x3cac2338	0.021012887
166	0xbce2f7d7	-0.02770607
167	0xbd1c7399	-0.03819618
168	0xbc7fa88d	-0.0156041505
169	0xbd8ee84c	-0.06977901
170	0xbd720606	-0.059087776
171	0x3b8f5746	0.0043744175
172	0xbcc3ca78	-0.023900256
173	0x3d43a05a	0.047760345
174	0xbbbe19a9	-0.005801399
175	0x3db8fd88	0.09032732
176	0x3dbc8f2a	0.09206994
177	0x3cd06dfe	0.025443073
178	0x3d41508e	0.047195964
179	0xbd2f1b3f	-0.042750593
180	0x3ced9386	0.029001009
181	0xbd955954	-0.072924286
182	0xbdae4868	-0.08509904
183	0x3c373d64	0.01118407
184	0x3d0940f3	0.033509206
185	0xbc8eb9e0	-0.017422616
186	0x3ade9d26	0.001698409
187	0x3d098c23	0.03358091
188	0x3c64c172	0.013962137
189	0x3d8ae149	0.06781251
190	0xbd17f953	-0.03710301
191	0x3d148693	0.036261152
192	0xbd047b67	-0.03234425
193	0xbd0a3826	-0.033744954
194	0xbda3d12f	-0.07998883
195	0xbdb29c7d	-0.08721254
196	0x3b87ec4c	0.004148042
197	0x3d732395	0.059360106
198	0x3c9a32be	0.018823024
199	0xbd5b57c1	-0.053550486
200	0x3c9d616e	0.019211497
201	0x3c7936f1	0.015210853
202	0x3da745ff	0.081676476
203	0x3d05bc5c	0.032650337
204	0xbb2b2629	-0.0026115275
205	0xbc87d70a	-0.01658203
206	0xbc392aae	-0.01130168
207	0xbba5134e	-0.0050377017
208	0xbd8c006c	-0.06836018
209	0xbcc127b7	-0.023578508
210	0x3c97f8a2	0.018551175
211	0x3ba479de	0.0050194105
212	0xbd172c44	-0.03690745
213	0x3dacbff2	0.08435048
214	0x3caa174c	0.020763062
215	0xbccb120a	-0.024788875
216	0xbcf00dd3	-0.029303467
217	0x3d840e70	0.06448066
218	0xbc5136c2	-0.012769403
219	0x3d1bd640	0.03804612
220	0xbd7e1121	-0.062028054
221	0x3c7b38b5	0.015333344
222	0x3b85e232	0.0040858025
223	0xbcf8e914	-0.030384578
224	0x3d9d8f26	0.07693319
225	0x3cb25aca	0.021771807
226	0x3bc0bc82	0.005881847
227	0x3d928511	0.07154287
228	0xbd07ea99	-0.033182714
229	0x3d0d5162	0.03450144
230	0x3c880c33	0.01660738
231	0x3db15caa	0.086602524
232	0x3c3c5f1c	0.011497285
233	0xbc7c470f	-0.015397801
234	0x3c4dfe09	0.012572774
235	0xbd4c3760	-0.049857497
236	0x3c767bf1	0.015044198
237	0xbd6d89b1	-0.05799264
238	0xbd8f4e71	-0.069973834
239	0xbbfb0b7c	-0.007661281
240	0xbcddf089	-0.027092235
241	0xbd31d4f0	-0.043415964
242	0xbcbd3dca	-0.023100752
243	0xbd2b1968	-0.041772276
244	0x3da4d7bd	0.08048961
245	0x3d1783b8	0.03699085
246	0x3c00f3c0	0.0078706145
247	0xbd733b76	-0.05938288
248	0x3d878d5f	0.06618761
249	0xbcd520db	-0.026016643
250	0x3d5538ba	0.05205605
251	0xbd1b0cb8	-0.037853926
252	0x3d2d35dd	0.042287696
253	0x3cd374ac	0.02581247
254	0x3d6022e0	0.05472076
255	0xbd970217	-0.073734455

conv_time_spat.conv_time.bias f4 [40]
0	0x3b75e7b4	0.003752214
1	0x3c7cd38f	0.015431299
2	0x3c93b52e	0.01803073
3	0x3bc8f8e3	0.0061331852
4	0xbc1bc120	-0.009506494
5	0xbbe3021e	-0.0069277426
6	0x3c84718c	0.016167425
7	0x3bbb21d2	0.005710819
8	0xbb13776b	-0.0022501599
9	0xbc3e1238	-0.011601023
10	0xbae1c7cb	-0.0017225681
11	0x3be6a120	0.0070382506
12	0xbc654014	-0.013992328
13	0xbc03b85c	-0.00803956
14	0xbc0dac11	-0.008646981
15	0xbbfd950a	-0.007738714
16	0x3b3e329b	0.0029021862
17	0x3b76d0b3	0.0037661016
18	0xbb50c6a7	-0.0031856687
19	0xbc08a025	-0.008338963
20	0x3c0d0f35	0.008609583
21	0xbc187b95	-0.009306808
22	0xbb85e893	-0.004086563
23	0xbb15166d	-0.0022748963
24	0x3b9d0a8e	0.004792518
25	0xbaffa14d	-0.0019503027
26	0xbbc3e7da	-0.0059785666
27	0x3baf1524	0.0053430963
28	0xbc185834	-0.009298373
29	0x3bf8af14	0.0075892303
30	0xbbb92ac0	-0.005650848
31	0x3baa1394	0.005190322
32	0xbbe8b36c	-0.007101467
33	0xbc2d74cc	-0.010586929
34	0x3be7dfe2	0.0070762495
35	0x3b14473a	0.0022625462
36	0x3cad43d5	0.021150509
37	0xbc9cab44	-0.019124635
38	0xbbd2e3c4	-0.006435843
39	0xbbf40796	-0.0074471934

conv_time_spat.conv_spat.weight f4 [40, 40, 1, 19]
0	0xbd299b5b	-0.041407924
1	0x3cc2ec86	0.023794424
2	0x3d548077	0.051880326
3	0x3d01b621	0.031667832
4	0xbbf52fc8	-0.0074825026
5	0xbda1d521	-0.07901979
6	0x39f99f62	0.0004761173
7	0xbb5a28cc	-0.0033288477
8	0x3d81803f	0.06323289
9	0x3c9ca714	0.019122638
10	0xbd107219	-0.035265062
11	0x3cacf0f3	0.021110987
12	0xbcd37377	-0.025811894
13	0x3d3b8b79	0.04578731
14	0xbc58b6ec	-0.013227206
15	0xbd7ce2aa	-0.0617396
16	0x3cb62788	0.022235647
17	0xbd167749	-0.036734853
18	0xbd6a8baa	-0.0572621
19	0x3c864b72	0.016393397
20	0xbd2f5636	-0.042806827
21	0x3d924391	0.071417935
22	0xbb8e7e7b	-0.0043485737
23	0x3da016bb	0.078168355
24	0xbc4ce6f6	-0.012506237
25	0x3bf719a4	0.0075408984
26	0x3d3d3a78	0.04619834
27	0xbd7cbfdf	-0.06170642
28	0xbca06c3d	-0.019582862
29	0xbc8559d7	-0.01627819
30	0xbd2f9349	-0.04286507
31	0x3ce6d297	0.028176589
32	0xbd489116	-0.04896649
33	0x3d3e4161	0.04644907
34	0x3cf409ff	0.029789923
35	0x3d29abf6	0.04142376
36	0xbd875f88	-0.06610018
37	0xbd98dbcb	-0.07463797
38	0x3c0ba67f	0.0085235825
39	0x3cd2e313	0.025743043
40	0x3bb78c16	0.0056014163
41	0x3d468860	0.0484699
42	0x3d868c59	0.06569738
43	0xbcb43388	-0.021997228
44	0x3d154ac0	0.03644824
45	0x3c1f9238	0.009739451
46	0xbd315691	-0.043295447
47	0xbc6bc8b4	-0.014391113
48	0x3d0ed3cb	0.03486995
49	0xbcfd9c83	-0.03095842
50	0x3c843c72	0.016142104
51	0x3c21302b	0.009838144
52	0x3d823d5c	0.063593596
53	0x3d004c29	0.031322632
54	0x3cdeab56	0.027181309
55	0x3d2462a7	0.040133145
56	0xbb81b82e	-0.0039587235
57	0xbbb4007f	-0.005493223
58	0xbcf3cec9	-0.029761689
59	0x3d961a0f	0.07329189
60	0x3d5549ba	0.052072264
61	0xbd6263f1	-0.055271093
62	0x3d8a4fb2	0.06753482
63	0xbd0363d0	-0.03207761
64	0xbd5cf6cb	-0.053946298
65	0xbd513221	-0.051073197
66	0x3c24daf0	0.010061964
67	0xbc806821	-0.015674653
68	0x3c8a3382	0.016870264
69	0xbd220d5b	-0.039563518
70	0xbd7f53fd	-0.062335957
71	0xbc2ef9a6	-0.010679638
72	0x3cea22fa	0.028581131
73	0x3d705041	0.058670286
74	0xbc625f6c	-0.013816696
75	0x3d862e53	0.065518044
76	0xbc7a80dd	-0.015289512
77	0x3cf9bf80	0.030486822
78	0xba8229e5	-0.0009930698
79	0x3d2ae74c	0.04172449
80	0xbd06a32c	-0.032870457
81	0xbd8ab23e	-0.06772278
82	0xbc1df963	-0.009641978
83	0x3d065657	0.032797184
84	0xbd803a71	-0.06261147
85	0xbd67b802	-0.056571968
86	0xbc8b5169	-0.017006593
87	0xbb1f7f93	-0.0024337515
88	0x3c88a5ef	0.016680686
89	0x3d3ffe62	0.046873458
90	0xbc1a684d	-0.009424281
91	0xbd791bb8	-0.06081745
92	0x3c6c03f9	0.014405244
93	0x3cde4dd8	0.027136728
94	0x3cb59453	0.022165453
95	0xbc6620c8	-0.014045902
96	0x3d215747	0.039389875
97	0xbc1f7df5	-0.00973462
98	0x3d4dbd98	0.05022964
99	0x3d96d489	0.073647566
100	0xbdbf2631	-0.09333456
101	0x3d45684b	0.048195165
102	0xbce5ab93	-0.028035915
103	0x3d296930	0.04136008
104	0x3d0444d8	0.032292217
105	0xbd441438	-0.047870845
106	0xbd1443e0	-0.036197543
107	0x3c4db6a4	0.012555752
108	0xbcfb7dd0	-0.03069964
109	0x3cd162b7	0.025559766
110	0xbce23ea6	-0.027617764
111	0xbd3e1a2b	-0.046411674
112	0xbcc8d342	-0.024514798
113	0x3d0ac600	0.033880234
114	0x3d5a4420	0.053287625
115	0x3c8442a9	0.016145067
116	0xbd93f40e	-0.07224284
117	0x3d8f12ff	0.06986045
118	0xbd3417c3	-0.043967973
119	0xbbb9fa93	-0.0056756227
120	0x3d144aac	0.036204025
121	0x3c4eb43d	0.012616214
122	0x3d71a055	0.058990795
123	0x3c3be07e	0.011467097
124	0xbc7d8a1e	-0.015474824
125	0x3ca74089	0.020416515
126	0x3cae4bc5	0.021276364
127	0xbc757c71	-0.014983282
128	0xbd516191	-0.051118437
129	0x3d5c805f	0.05383336
130	0xbbaa63ef	-0.0051999013
131	0xbcec4549	-0.028841631
132	0xbd5535ad	-0.052053142
133	0xbb20d77a	-0.0024542497
134	0x3c80e29a	0.015733052
135	0xbc82b26b	-0.015954217
136	0x3cefa564	0.02925367
137	0xbd7e7da6	-0.062131546
138	0xbcb3b67b	-0.0219376
139	0x3d27158d	0.040792037
140	0xbc42d2bb	-0.011891062
141	0x3d9973d2	0.07492794
142	0xbca53f17	-0.020171685
143	0x3d00989d	0.031395543
144	0xbcd49556	-0.025950115
145	0xbc6c8353	-0.014435607
146	0xbc83f3b5	-0.01610742
147	0x3d9a578f	0.07536232
148	0xbd6a3b61	-0.057185534
149	0x3cea0a0b	0.028569242
150	0x3bf0120d	0.0073263706
151	0x3d4c8f5d	0.04994141
152	0x3c2daccc	0.01060028
153	0xbaf18c4a	-0.001842865
154	0x3b1ff6b8	0.002440853
155	0x3d1de10e	0.038544707
156	0xbce0d532	-0.02744541
157	0x3c7eb7f0	0.015546784
158	0xbd301342	-0.042987116
159	0xbce7dbae	-0.028302994
160	0xbd2caea8	-0.042158753
161	0x3d12ca9b	0.03583775
162	0xbbe4de78	-0.006984528
163	0x3c71fcdc	0.014769759
164	0xbc402a42	-0.011728825
165	0xbd000984	-0.031259075
166	0xbc7b6f96	-0.015346428
167	0xbd3e2adf	-0.046427604
168	0x3d67d243	0.056597006
169	0xbcdc60cf	-0.02690163
170	0xbc500a9a	-0.01269784
171	0x3ced9386	0.029001009
172	0x3c7d399f	0.0154556325
173	0x3d7a8659	0.06116328
174	0x3bc3defc	0.0059775095
175	0xbd9f73a9	-0.07785732
176	0x3d6c0e56	0.05763086
177	0xbd1b8479	-0.037968133
178	0xbb4f69d2	-0.0031648767
179	0x3cc538bd	0.024074906
180	0xbcacb41a	-0.021081973
181	0x3c760b1b	0.015017296
182	0xbc634edd	-0.013873783
183	0xbd1c95d6	-0.038228832
184	0xbd4c1daa	-0.049832977
185	0x3c9d12ce	0.019174006
186	0x3cb121d4	0.021622576
187	0x3beb703c	0.0071850102
188	0x3d120a9b	0.035654645
189	0xbd7c79ac	-0.061639473
190	0x3d4617b7	0.04836246
191	0x3ca50ffe	0.020149227
192	0xbd6d5e75	-0.05795141
193	0xbb4c2d64	-0.0031154985
194	0xbb6c9f41	-0.0036105665
195	0xbd00a0a8	-0.031403214
196	0xbd60be0a	-0.054868735
197	0x3d13515a	0.035966255
198	0xbaa45a9e	-0.0012539213
199	0x3d713c57	0.058895435
200	0x3d566207	0.05233958
201	0x3ce03137	0.027367217
202	0x3c4c19cf	0.012457325
203	0x3cf59d46	0.02998222
204	0xbd1bbf5f	-0.038024303
205	0x3d3e8aed	0.04651921
206	0xbc3883da	-0.011261905
207	0xbd36def3	-0.044646215
208	0xbd2f4ee9	-0.042799864
209	0xbce86fd1	-0.02837363
210	0x3d1952da	0.03743253
211	0x3ce1616c	0.027512275
212	0x3c1bd67b	0.009511585
213	0x3d065565	0.032796282
214	0x3cfce67f	0.030871628
215	0x3d0f0337	0.034915175
216	0xbaea335a	-0.0017868087
217	0xbd2f80c6	-0.042847417
218	0xbd63f319	-0.055651758
219	0x3d4bcdf1	0.049756948
220	0xbd581db8	-0.052762717
221	0x3d357ef9	0.044310544
222	0xbcd0451c	-0.025423579
223	0xbc8ece39	-0.017432319
224	0xbd2997ec	-0.04140465
225	0x3cda4b37	0.026647193
226	0x3d745fab	0.05966155
227	0x3ca119f7	0.019665701
228	0x3d85e705	0.06538204
229	0x3d97ee90	0.07418549
230	0x3d19bfd4	0.037536457
231	0xbcf490d6	-0.02985422
232	0xbcca6d5a	-0.024710346
233	0xbce65b8c	-0.028119825
234	0x3d3fe9f7	0.046853986
235	0xbca07bcd	-0.019590283
236	0xbd58780b	-0.052848857
237	0x3c914aea	0.017735917
238	0x3c2e776e	0.010648591
239	0xbd844469	-0.06458361
240	0xbd327f30	-0.043578327
241	0x3ceb7690	0.028743058
242	0xbd2ed274	-0.042681172
243	0x3d87ddbf	0.066340916
244	0xbd2fad66	-0.042889975
245	0x3c512d17	0.012767098
246	0x3b956fa4	0.0045604277
247	0x3d2bda50	0.041956246
248	0xbd6acddc	-0.05732523
249	0xbc6b8094	-0.014373917
250	0x3c0fb2a3	0.008770618
251	0x3d5d1d84	0.053983226
252	0xbdb29b2e	-0.087210044
253	0xbbe9b6a1	-0.0071323668
254	0xbc72d3c1	-0.014820994
255	0xbc930c83	-0.017950302

bnorm.weight f4 [40]
0	0x3f8299a5	1.0203139
1	0x3f808316	1.0040004
2	0x3f809a33	1.0047058
3	0x3f81cd85	1.0140845
4	0x3f80eb1a	1.0071747
5	0x3f82947d	1.0201565
6	0x3f829ca7	1.0204057
7	0x3f81a875	1.0129534
8	0x3f82d92b	1.0222524
9	0x3f821514	1.0162683
10	0x3f818196	1.0117671
11	0x3f8334d7	1.02505
12	0x3f8214cf	1.01626
13	0x3f87617d	1.0576626
14	0x3f81dc53	1.0145363
15	0x3f80820d	1.0039688
16	0x3f80895a	1.0041916
17	0x3f816a7c	1.0110621
18	0x3f80c7d9	1.0060989
19	0x3f81308e	1.0092943
20	0x3f82e6d8	1.0226698
21	0x3f8054d7	1.0025891
22	0x3f827e0c	1.0194716
23	0x3f80c506	1.0060127
24	0x3f835bc5	1.0262381
25	0x3f813a82	1.009598
26	0x3f835e8d	1.026323
27	0x3f830f76	1.0239093
28	0x3f813c2a	1.0096486
29	0x3f81244a	1.00892
30	0x3f80644e	1.003061
31	0x3f81bbba	1.0135415
32	0x3f814f5c	1.0102344
33	0x3f807903	1.003693
34	0x3f814e0b	1.0101942
35	0x3f840f01	1.0317079
36	0x3f800260	1.0000725
37	0x3f841d65	1.032147
38	0x3f82607a	1.0185692
39	0x3f80857b	1.0040735

bnorm.bias f4 [40]
0	0xbccc9b76	-0.024976473
1	0xbcb3ee89	-0.021964328
2	0xbcf24cfc	-0.029577725
3	0x3bd6b68f	0.0065525244
4	0xbc90813b	-0.017639747
5	0xbcfa1dba	-0.030531753
6	0x3db8ef6c	0.09030041
7	0xbaa542b4	-0.001260838
8	0x3cfc392c	0.03078898
9	0x3d6f84c9	0.058476243
10	0x3cb6fdf5	0.022337893
11	0xbd6b0c6a	-0.057384886
12	0x3d39ce3d	0.0453627
13	0xbdaa97ab	-0.083297096
14	0xbce3093a	-0.02771436
15	0x3d5ce83a	0.053932406
16	0x3bedc4f0	0.007256143
17	0x3c41bf39	0.011825376
18	0xbc75ada2	-0.014995011
19	0xbb46ec8e	-0.00303534
20	0xbc9e34e4	-0.01931233
21	0xbe0b8b88	-0.13627446
22	0xbcffe8da	-0.031238962
23	0x3b546e5c	0.0032414412
24	0x3d91d667	0.07120972
25	0x3d42c2d1	0.047549073
26	0x3d8b8747	0.068129115
27	0xbd4d0691	-0.05005509
28	0x3ce15ac5	0.027509103
29	0x3cc7ec72	0.024404738
30	0x3cdb10d8	0.02674143
31	0xbc72bca0	-0.0148154795
32	0xbbdd448d	-0.0067525567
33	0xbccad3e9	-0.02475925
34	0x3bb65d58	0.0055653267
35	0x3d9d0802	0.07667543
36	0x3ccc0c21	0.024908127
37	0x3d83c20c	0.06433496
38	0x3c3896d9	0.011266434
39	0xbd90f7a9	-0.070784874

bnorm.running_mean f4 [40]
0	0xbcedb1c2	-0.029015426
1	0xbb9bf318	-0.0047592036
2	0x3b48a288	0.0030614454
3	0x3aebdb99	0.0017994522
4	0xbcce68c8	-0.025196448
5	0xbc9e4a2e	-0.019322481
6	0xbc10def7	-0.008842221
7	0xbb82190e	-0.003970272
8	0xbb7dfec5	-0.003875659
9	0x3b1f3645	0.0024293822
10	0xbb54c83d	-0.0032467984
11	0x3b3b1ab6	0.0028549857
12	0xbc5635f6	-0.013074389
13	0x3cfd59ac	0.030926548
14	0xbca4ba2f	-0.02010831
15	0x3c746611	0.014916913
16	0x3bdabc4b	0.0066752783
17	0xbca934ff	-0.020655153
18	0xbb7d1e59	-0.0038622825
19	0x3d053e9b	0.03253041
20	0xbcd2edfa	-0.025748242
21	0x3ba86883	0.005139412
22	0x3cb066d4	0.021533407
23	0xbc178682	-0.009248378
24	0xbc880e55	-0.016608397
25	0xbc71191e	-0.014715461
26	0xbc156436	-0.00911813
27	0x3d13edbe	0.0361154
28	0xbc5b7572	-0.0133947
29	0x3cda00a2	0.02661163
30	0x3be515f4	0.0069911424
31	0xbc4f0488	-0.012635358
32	0x3b915dba	0.004436222
33	0x3ca5b958	0.02022998
34	0xbae493ca	-0.0017439064
35	0xbc99506b	-0.018715104
36	0xb885d7c0	-6.382121e-05
37	0x3c9682d9	0.01837294
38	0x3c35e5ea	0.011102179
39	0xbc6eb372	-0.01456915

bnorm.running_var f4 [40]
0	0x403a62b5	2.9122746
1	0x3f949f80	1.1611176
2	0x3f8c5746	1.0964134
3	0x3f642320	0.89116096
4	0x3fcfc338	1.6231451
5	0x3fbbd5e9	1.4674655
6	0x3f6089af	0.8771009
7	0x3f9548e1	1.1662866
8	0x3f9cbfef	1.2246073
9	0x3fc82c84	1.5638585
10	0x3fb6db98	1.4285765
11	0x400a3ddf	2.1600263
12	0x3fba2c57	1.4544781
13	0x3fe32958	1.7746992
14	0x3fe930bf	1.8218001
15	0x3fb4b098	1.4116392
16	0x3f929b3c	1.1453624
17	0x40239864	2.5561762
18	0x4032fff7	2.7968729
19	0x3fde4950	1.7366123
20	0x402c7879	2.694853
21	0x3fce121a	1.6099274
22	0x3fa88956	1.3166912
23	0x4025c254	2.5899858
24	0x3f8b76a4	1.0895581
25	0x3f87d658	1.0612288
26	0x3f9ece55	1.2406718
27	0x3fd178e7	1.6365021
28	0x40425841	3.0366366
29	0x3fe92643	1.8214802
30	0x3f9169f2	1.1360457
31	0x3fb1961c	1.3873935
32	0x3fe6d7ab	1.8034567
33	0x3fefab1c	1.8724093
34	0x3fa1ffd9	1.2656204
35	0x3ffbb986	1.9665992
36	0x3fbc33e4	1.4703336
37	0x3f9fc214	1.2481103
38	0x3fb4560f	1.4088763
39	0x3f96287b	1.1731104

final_layer.conv_classifier.weight f4 [2, 40, 34, 1]
0	0x3cbf59a2	0.02335817
1	0x3d05925d	0.032610286
2	0x3d843fec	0.06457505
3	0xbd14bf84	-0.036315456
4	0x3cb44c44	0.022009023
5	0xbd61b087	-0.05509999
6	0x3c5214d8	0.012822352
7	0x3cb64afe	0.022252556
8	0x3d74519c	0.05964814
9	0xbd553a7e	-0.052057736
10	0xbba1c508	-0.004936818
11	0xbce86524	-0.02836854
12	0x3d2b7dee	0.041868143
13	0x3cfdd2c9	0.0309843
14	0xbc97871c	-0.018497042
15	0xbc5fbf9b	-0.013656522
16	0xbbee285a	-0.007267994
17	0x3d558030	0.052124202
18	0xbbc94123	-0.006141798
19	0x3af83006	0.001893521
20	0x3daaa1a7	0.08331614
21	0x3c902515	0.017595807
22	0x3d2e8fb1	0.042617504
23	0x3a316e91	0.000676849
24	0x3d396f45	0.04527213
25	0xbc861ef6	-0.016372185
26	0xbd4e7bda	-0.050411083
27	0x3c920088	0.017822519
28	0xbcdaab6f	-0.026693074
29	0xbd850f95	-0.06497113
30	0xbcb82254	-0.022477306
31	0x3d21cbdc	0.039501056
32	0x3ba78f9b	0.0051135547
33	0xbbd01792	-0.006350466
34	0xbd8bfd9c	-0.068354815
35	0xbd9d180f	-0.076706044
36	0xbda65e7e	-0.08123492
37	0xbd31c801	-0.04340363
38	0x3d0b1652	0.033956833
39	0x3c18ee69	0.009334185
40	0x3d17059c	0.036870584
41	0xbc33f07d	-0.01098263
42	0x3bfe6a5d	0.0077641443
43	0x3d323e7a	0.043516614
44	0xbc779526	-0.015111243
45	0xbd482496	-0.048863016
46	0xbbb95d58	-0.0056568794
47	0xbbc9844d	-0.0061498047
48	0xbd4fa6e0	-0.050696254
49	0xbcb54c53	-0.02213112
50	0xbd38afcb	-0.045089524
51	0xbd162141	-0.036652807
52	0xbd969ab2	-0.073537245
53	0xbb31091b	-0.0027013484
54	0xbcba8dd4	-0.022772707
55	0x388c5ef8	6.6934095e-05
56	0xbc900a20	-0.017582953
57	0x3c9fd37e	0.019510027
58	0xbd553c5a	-0.05205951
59	0x3c721153	0.014774638
60	0xbbe09253	-0.0068533807
61	0x3cef5dcc	0.02921953
62	0x3ce29851	0.02766052
63	0xbd44f8e5	-0.048088927
64	0xbd0accf5	-0.03388687
65	0xbccdb63a	-0.025111306
66	0xbcd27c15	-0.025693933
67	0xbd399e19	-0.04531679
68	0xbd4941ff	-0.049135204
69	0x3d780f93	0.060561728
70	0x3d9d46c5	0.07679514
71	0x3cbd494a	0.023106236
72	0xbc593d21	-0.013259203
73	0x3c83dc44	0.016096242
74	0x3d60032a	0.054690517
75	0x3cc9b2eb	0.024621448
76	0xbc328eea	-0.010898331
77	0xbb0e8d56	-0.0021751723
78	0x3d01759b	0.031606298
79	0x3be09685	0.006853881
80	0xbcebf71b	-0.028804353
81	0xbb383d16	-0.0028112582
82	0x3cc19364	0.023629852
83	0xbcebfa5b	-0.028805902
84	0xbd55da0e	-0.052209906
85	0xbd041c47	-0.03225353
86	0x3ba9c2c9	0.005180691
87	0xbcb1aad0	-0.021687895
88	0xbe000e99	-0.12505569
89	0xbdc9952e	-0.09842907
90	0xbd8693d4	-0.06571165
91	0xbd18986b	-0.037254732
92	0xbcf04bb0	-0.029332966
93	0x3c4a1ade	0.012335507
94	0xbd02b7b8	-0.03191349
95	0x3cfe25e1	0.031023921
96	0xba1accf7	-0.0005905176
97	0x3d455813	0.048179697
98	0xba5ba4ef	-0.0008378764
99	0xbd246a52	-0.040140457
100	0x3cf87c89	0.03033282
101	0xbcaff729	-0.02148016
102	0xbce6563d	-0.028117293
103	0xbd0d7bf2	-0.03454203
104	0xbd839607	-0.064251
105	0xbda037ba	-0.07823129
106	0x3d05d56c	0.032674238
107	0xbcef7387	-0.029229892
108	0x3cc60acb	0.024175068
109	0x3c9f52a2	0.019448582
110	0xbd2d7de9	-0.042356405
111	0x3b59ba02	0.0033222442
112	0x3d535ee6	0.051604174
113	0x3d917a2b	0.0710338
114	0xbd18b3b6	-0.03728076
115	0xbcafdc43	-0.021467334
116	0xbcb6970e	-0.022288825
117	0x3dabd844	0.08390859
118	0x3c544dfc	0.012958046
119	0x3dbdf965	0.09276084
120	0x3d0faf76	0.035079442
121	0x3dc1e50a	0.09467514
122	0x3db4855d	0.088144995
123	0x3d709bb6	0.058742248
124	0xbca6d4a6	-0.02036507
125	0xbd283813	-0.0410691
126	0xbcbaee96	-0.022818845
127	0x3ced92cf	0.029000668
128	0xbd50f737	-0.051017012
129	0xbd70cb0d	-0.058787394
130	0x3d411b10	0.04714495
131	0x3d833024	0.064056665
132	0xbcd66c92	-0.026174817
133	0x3d017f62	0.031615622
134	0xbd0887cb	-0.033332627
135	0x3d1634bc	0.036671385
136	0xbc9ac9c3	-0.018895036
137	0xbc32db5c	-0.010916557
138	0xbaedee45	-0.0018152675
139	0x3c6ac38a	0.014328847
140	0xbd456270	-0.04818958
141	0x3a4a6da4	0.0007722026
142	0xbd9360f6	-0.07196228
143	0xbc375a14	-0.01119091
144	0xbd3cb7f3	-0.046073865
145	0xbb90b79f	-0.0044164206
146	0x3d527c56	0.051388107
147	0xbd840520	-0.0644629
148	0xbaefdf52	-0.0018300808
149	0xbcf67858	-0.030086681
150	0x3c497af7	0.0122973835
151	0x3cf0456c	0.029329978
152	0xbc27c46f	-0.0102397045
153	0x3baa45d2	0.0051963115
154	0xbd2b3f20	-0.041808248
155	0x3b2ce369	0.0026380664
156	0xbc7e092e	-0.015505118
157	0x3d515a3f	0.051111456
158	0x3d59ab77	0.053142037
159	0xbabee715	-0.0014564717
160	0x3c2effa9	0.010681071
161	0x3d528f83	0.051406395
162	0x3d7572bc	0.059923872
163	0x3d205cbe	0.039150946
164	0x3da04b0d	0.07826815
165	0xbc8e2cec	-0.017355405
166	0x3d7a8bde	0.061168544
167	0x3d8c012a	0.068361595
168	0xba8ade33	-0.0010594785
169	0x3c3a37f7	0.011365882
170	0x3c971c0c	0.018445991
171	0x3cfe5510	0.03104642
172	0x3c8f8985	0.01752163
173	0x3bfade3e	0.007655888
174	0xbd8917e7	-0.06694012
175	0xbd528f54	-0.05140622
176	0x3cca00ae	0.024658527
177	0xbb64ac56	-0.003489276
178	0xbd26379c	-0.040580377
179	0xbc057d8c	-0.0081476085
180	0x3d0b7bc6	0.034053586
181	0x3d8582b5	0.06519071
182	0x3cb29c73	0.021803116
183	0x3d8dedd2	0.06930126
184	0x3d4128b4	0.04715796
185	0x3d01c4d4	0.03168185
186	0x3d470e6d	0.048597742
187	0x3c117905	0.008878951
188	0x3d038766	0.032111548
189	0x3da67db3	0.08129444
190	0x3d72ffb6	0.059325896
191	0xbca85063	-0.020546144
192	0xbba41150	-0.0050069466
193	0xbd941db6	-0.072322294
194	0xbd243f0d	-0.040099192
195	0xbd6c7492	-0.057728358
196	0x3c3be83d	0.011468944
197	0x3c8207a5	0.015872786
198	0xbd900dfb	-0.070339166
199	0xbbc94d9d	-0.0061432854
200	0xbd7d3bd8	-0.06182465
201	0xbd880e9f	-0.06643414
202	0x3b678982	0.0035329764
203	0xbd2270a9	-0.039658222
204	0xbc3c7be2	-0.011504145
205	0x3d7aa2ff	0.0611906
206	0x3bcf4d51	0.0063263555
207	0xbd01f358	-0.03172621
208	0x3d7b8387	0.06140473
209	0x3c25b9a6	0.010115063
210	0x3b449a69	0.0029999262
211	0x3d2766c2	0.04086948
212	0x3c976166	0.01847906
213	0xbd0f3a85	-0.034967918
214	0x3cd66886	0.026172888
215	0x3ce788b0	0.02826342
216	0x3c8a8e61	0.016913595
217	0xbce42807	-0.027851118
218	0xbbb75f0f	-0.0055960487
219	0x3d0f4647	0.03497913
220	0x3d344d1b	0.044018846
221	0x3d20fe19	0.039304826
222	0x3c725179	0.014789932
223	0xbce53908	-0.027981296
224	0x3ccfe8dd	0.025379593
225	0x3d22351b	0.039601427
226	0xbd59315e	-0.053025596
227	0x3c5a146d	0.013310534
228	0xbbc73c23	-0.006080167
229	0xbd8cdab2	-0.0687765
230	0xbd432158	-0.04763922
231	0xbdc6bbd6	-0.097037956
232	0xbd0976e3	-0.033560645
233	0xbd7c5485	-0.06160404
234	0xbcf94920	-0.030430377
235	0x3d29da46	0.041467927
236	0xbc2b794c	-0.010465931
237	0x3c0f008e	0.00872816
238	0x3d54325d	0.051805843
239	0xbc67e524	-0.0141537525
240	0xbc678c1b	-0.014132525
241	0x3d9b8382	0.075934425
242	0x3d31973b	0.043357115
243	0xbcf7d533	-0.030253028
244	0x3843dab2	4.66953e-05
245	0x3ce19c0b	0.027540227
246	0x3c97bf6e	0.018523898
247	0x3cab7fcb	0.02093496
248	0x3c48bd11	0.012252108
249	0x3d1a0240	0.037599802
250	0x3d8873a7	0.06662684
251	0x3db31976	0.08745091
252	0xba40d531	-0.0007355987
253	0xbc2f4bf5	-0.010699262
254	0x3cbeba2a	0.02328213
255	0xbd0f8c41	-0.035045866

final_layer.conv_classifier.bias f4 [2]
0	0xba8d7141	-0.0010791199
1	0x3a8d7141	0.0010791199
