left-right/shallow_model.pth (torch, 141733 bytes, 9 tensors)

conv_time_spat.conv_time.weight f4 [40, 1, 25, 1]
00000000: 965f dc3c a3bc 32bd b410 133d de72 be3c
00000010: 3f8a 58bd fa39 a3bc 78ea a63c 4dc2 2bbd
00000020: 2b4e 373d 38b9 05bd 8882 e53c bbf7 72bd
00000030: b2a6 30bd e9c5 3b3d e12e 09bc 3324 673b
00000040: 65ea 36bd 30c5 a0bc c690 e23c d846 713d
00000050: 1e37 15bd 3e3c 373d 6dd8 30bd 4235 3bbd
00000060: e33a 63bd 1511 81bd 52e1 90bd ae91 05bd
00000070: fe26 ac3c 90f1 34bd 9b59 d8bc 34eb 72bd
00000080: 1401 8b3d d609 813d 6382 cdbc e415 3dbc
00000090: b75a e7bc 2116 44bb 5d64 96bc c450 153c
000000a0: 4fd4 7f3c f33b 88bd 27fa 0c3d acb4 693d
000000b0: cd2c fe3c 7134 503d c638 b73c 188e 6dbd
000000c0: 9fc4 0a3d b3ec 50bd 49aa b2bc f2d2 ba3c
000000d0: eafe 3d3d dde2 a1bd 5098 0b3d f556 12bd
000000e0: aa7d 95bd bdfe d23c e827 c0bc 48db 84bd
000000f0: cf4f ddbb e853 063d 9a3c 4fbd f500 84bc
00000100: fcbb 823d 2925 833d db36 58bd 70e1 0cbd
00000110: 9df3 343d fdff d13c d87b 993d 16a9 6cbd
00000120: 44db d5bc 0b5a 23bd 5b85 d0bc 84ee 53bd
00000130: f91b 64bd 7621 513d f603 0dbc c8e1 c3bc
00000140: a3c9 d63b b07d 9c3d 89f0 243d 26d3 133d
00000150: b340 0a3c 878b ab3c ec4b be3c ef09 43bd
00000160: e3a5 89bd 0785 693d 7d55 023d 2aec 893d
00000170: 9137 f0b8 03d6 8e3d fd5a d1bb ac40 33bd
00000180: 9901 26bd 1ac5 733d ee3d 8dbd 0f8c 0dbc
00000190: d6dc bebb a069 d03b 40bb 4fbd 2d01 35bd
000001a0: 74fe 61bd bfca 41bd f7a3 003d 2b79 28bd
000001b0: 9260 313d 9647 223d cb60 bfbb bab3 87bd
000001c0: f131 053d 0ae5 703c d169 e9bc 9c95 8abb
000001d0: c4ca 82bd 27f5 253d f421 f83c 4182 773d
000001e0: aa28 7b3d 63d1 72bc 7188 6dbd bbb1 73bd
000001f0: bcfd bb3c 5c9a 2fbd 15e2 433d baf5 80bc
00000200: a6ed 86bd b2ae 203c d281 66bd 9721 70bd
00000210: 454e 0d3d 6c3e 43bc 97e1 773d e5e0 35bd
00000220: 5a3d 1f3d b6bf d9bc 7c4d 17bd 36b0 f7bc
00000230: 9ea9 17bd d3cc 673d c77f 8f3d 1818 35bd
00000240: 0c86 bc3c bf40 39bd 1728 093d daeb e5bc
00000250: 8b39 53bd bd6b 09bd fe59 b83b 1cca 983d
00000260: d8b4 413d fc67 9c3d 63a4 923d b616 8abd
00000270: 353c e23c 570a d43c c0e9 0e3d 37a3 8bb8
00000280: 9244 1e3d 398c 723d 5fb2 733d d9f1 05bc
00000290: b214 433d 2df7 b33c 423b d8bc 8049 18bd
000002a0: 33ee 80bc b5b1 8ebd 5e1d 71bd a9f1 843b
000002b0: 4aa4 bebc 8208 463d 719d 26bb 8a19 bc3d
000002c0: 4e83 b93d 7e2e ca3c 2864 493d ede8 17bd
000002d0: 85e5 153d 9ff7 8bbd 2a54 a8bd 0ade 603c
000002e0: c154 063d 5ec4 adbc 8fef babb 572a d23c
000002f0: b2db ea3b 3a6a 813d ea7e 1dbd 33cd 1b3d
00000300: 9606 e9bc 1c2c e9bc 170d a1bd feee b9bd
00000310: f140 96bb 7876 4d3d deb6 553c f52e 65bd
00000320: c7b3 613c f70a 323c ceac a13d c2f4 063d
00000330: 5958 0c3a 35a1 41bc 6c36 e7bb 2d6f 4bbb
00000340: 6d97 8fbd e3b0 d2bc 1f65 7a3c 094f 0a3b
00000350: 2fef 29bd 38c6 a03d a5da 8b3c a1d5 d6bc
00000360: f7f3 dbbc 4c29 8d3d 2edd 09bc 0a38 243d
00000370: 6b14 7ebd 47b4 563c 800a b2b7 b859 0bbd
00000380: 1480 9c3d e568 593c aacb 3abb 995a 883d
00000390: c3c7 0fbd 0f46 0c3d 4d35 923c e182 b43d
000003a0: 8af5 5c3c 0e93 56bc dd82 613c f21e 56bd
000003b0: 7696 113c 6f6f 8abd e54f a6bd e82c aabc
000003c0: 54e2 26bd e106 63bd 3ab4 f3bc 0d42 2fbd
000003d0: 06a0 ab3d 60b6 2c3d 45df 603c 3085 62bd
000003e0: 90be 7c3d 1cd1 20bd 46a9 5d3d d763 0dbd
000003f0: e624 3f3d 8f2c ed3c e537 613d ed13 97bd
0.026901048 -0.04363693 0.0359046 0.023248132 -0.052866217 -0.019925106 0.020375475 -0.041933347
0.04475228 -0.03264734 0.028016344 -0.059318285 -0.043127723 0.04584304 -0.008372993 0.003526938
-0.04465713 -0.019625276 0.027656924 0.058905452 -0.036429517 0.044735186 -0.04317515 -0.045705087
-0.05547608 -0.06302086 -0.070742264 -0.032609634 0.021014687 -0.044175684 -0.026409915 -0.05930634
0.06787315 0.06300704 -0.025086587 -0.011540864 -0.028241498 -0.0029920416 -0.018358404 0.009113494
0.015614583 -0.066520594 0.03441825 0.057057068 0.031027222 0.050831262 0.022365939 -0.05799684
0.03387892 -0.051006984 -0.021809714 0.022805665 0.046385683 -0.07904599 0.034080803 -0.03572746
-0.07299359 0.025756234 -0.023456529 -0.06487137 -0.0067538987 0.032794863 -0.050594904 -0.016113738
0.063835114 0.06403572 -0.05278669 -0.03439468 0.04417764 0.02563476 0.074943244 -0.05777844
-0.02610553 -0.039880794 -0.025454214 -0.051741138 -0.05569074 0.0510573 -0.008606901 -0.023911372
0.0065547987 0.076411605 0.040268455 0.03609004 0.008438277 0.020940555 0.023229562 -0.047616895
-0.067210935 0.05701163 0.03181981 0.06734498 -0.00011454442 0.06974413 -0.0063890205 -0.043762848
-0.040528867 0.059514143 -0.06896578 -0.00863935 -0.0058246655 0.0063602477 -0.050715685 -0.044190574
-0.055174306 -0.047312494 0.03140637 -0.04113118 0.043304987 0.03961905 -0.005840396 -0.06626077
0.03251833 0.014703045 -0.02849284 -0.0042292606 -0.06386331 0.040517 0.030289628 0.060426954
0.061318077 -0.0148204295 -0.05799145 -0.05949567 0.022948138 -0.042871818 0.04782303 -0.015742172
-0.065882966 0.009807276 -0.05627615 -0.058625784 0.03449847 -0.011916738 0.060517874 -0.04440393
0.03887687 -0.026580673 -0.03693913 -0.030235391 -0.037026994 0.05659182 0.070067935 -0.04421243
0.023013137 -0.045227762 0.0334855 -0.028066564 -0.05156855 -0.033550013 0.0056259623 0.07460424
0.047291607 0.07637021 0.071602605 -0.06742613 0.0276166 0.025883837 0.03489089 -6.6584376e-05
0.038639612 0.059215758 0.05949628 -0.008175337 0.04762716 0.021968449 -0.026395444 -0.03717947
-0.015738582 -0.06967489 -0.058865897 0.0040571284 -0.023271699 0.048347957 -0.0025423432 0.09184559
0.090582475 0.024680372 0.049167782 -0.03708737 0.03659584 -0.06834339 -0.08219178 0.013724813
0.03279567 -0.0212118 -0.005704827 0.025654955 0.007167303 0.06319089 -0.038451113 0.03803749
-0.028445523 -0.028463416 -0.07863825 -0.09078787 -0.0045853783 0.05016181 0.013044087 -0.055952985
0.013775772 0.010866872 0.07894288 0.032948263 0.0005353741 -0.01181822 -0.007056048 -0.0031041608
-0.07011304 -0.025719112 0.015282898 0.0021104238 -0.04148787 0.07850307 0.017072031 -0.026224913
-0.02684973 0.068926424 -0.00841455 0.040092506 -0.06203119 0.013104505 -2.1224143e-05 -0.03402111
0.076416165 0.013269638 -0.002850274 0.06657905 -0.035102617 0.0342465 0.017847681 0.08814026
0.013486275 -0.013096584 0.01376411 -0.052275605 0.00888597 -0.067595355 -0.081207074 -0.020773366
-0.040743187 -0.055426482 -0.029749025 -0.0427876 0.083801314 0.042166114 0.013725107 -0.0553028
0.061705172 -0.039261922 0.05411651 -0.034519043 0.04666605 0.028951911 0.054984946 -0.073768474

conv_time_spat.conv_time.bias f4 [40]
00000000: ed38 da3a f00b e9b9 e1af 17ba aef6 a8ba
00000010: 96ec 05ba 7d96 213b 9990 5f3b e3f2 4f3b
00000020: 184e 25ba a841 e9ba 3e34 82bb 3ad8 2439
00000030: b4d1 5eba f2bc 2c3a 6e63 39bb ccf5 263b
00000040: e97a f6ba ea10 023b cfe9 ac3a 5f29 b039
00000050: cbd3 60bb 611e 14ba 0e16 4aba 17c3 a9bb
00000060: e9e0 a139 55b4 6dbb fc07 9aba 3fdd 28bb
00000070: 8568 02ba d316 3738 676f d03a fb3c 0fbb
00000080: ec86 8cbb 874b 833a a65a 8f3b 362c d139
00000090: 2be4 7e3b ef28 b1b9 34f1 89ba 31bc 70bb
0.0016649045 -0.00044450117 -0.0005786401 -0.0012890899 -0.00051088014 0.0024656348 0.0034113287 0.0031730465
-0.00063058874 -0.0017796056 -0.003973513 0.0001572081 -0.0008499876 0.00065894343 -0.0028288024 0.0025476096
-0.0018804941 0.0019846507 0.0013192239 0.0003360016 -0.0034305926 -0.0005650279 -0.0007708975 -0.005180727
0.00030875884 -0.0036270816 -0.0011751647 -0.0025766639 -0.0004974681 4.3651857e-05 0.0015902341 -0.0021856416
-0.004288545 0.0010017016 0.00437482 0.00039896526 0.0038893323 -0.0003379057 -0.0010524155 -0.0036733265

conv_time_spat.conv_spat.weight f4 [40, 40, 1, 19]
00000000: d82c 28bd 0a0b ba3c 1464 513d d524 be3c
00000010: 6fe9 81bc 6d18 92bd 3be6 0ebc 081a 74bb
00000020: 72f4 8b3d d3a3 173d 1911 1fbd 29b7 1cbb
00000030: e7a7 d0bc 4c43 393d 48a4 9dbc 9b65 2fbd
00000040: 0249 06bc 3064 6fbd c39c 4abd 300d ba3c
00000050: 8c06 0fbd bcba 553d f0f5 333c 6eb3 603d
00000060: c174 f63b a945 2f3c 2a04 4a3d d2c8 3bbd
00000070: f693 24bc bbba 0abd 6e81 5cbd f1ad a23c
00000080: 2e30 6abd 850d 4f3d 35a4 273d 0b9e 363d
00000090: 4968 8bbd fedf 66bd 4383 ce3b 72b2 c03c
000000a0: 9b33 bc3b b250 173d 2f27 793d 6297 85bc
000000b0: 3e88 c73c a197 b93b 5511 27bd 568a b13b
000000c0: 1f42 073d 9b55 48bd 7d66 a63c d032 813c
000000d0: 4965 6a3d 88b9 6b3d 8b63 eeba b350 983c
000000e0: 9b43 c6bb 6d97 44bc 44fc 0abd ae6f 833d
000000f0: f7a9 503d de07 07bd f0c5 3a3d 0ef3 893a
00000100: dd33 4abd 91a1 fabc f007 ce3b 9c0c 0bbb
00000110: 5f05 c13c e333 81bc ee16 89bd d36e 903c
00000120: 983b eb3c a3e5 8a3d ad60 d7ba 2e61 983d
00000130: c607 35bc d740 0f3d 3488 08bc 47fb 353d
00000140: 67a6 2ebd 66f7 74bd 7fa5 70bc 1d3e 0e3d
00000150: ee80 5cbd 21a0 36bd 1236 c3bc ea4f 88bc
00000160: bbe9 3f3c 919f 353d a438 46bc 4bd7 40bd
00000170: 227d cf3b 85d0 9b3c 78ab 013d f903 3abc
00000180: 9bbd 293d fd46 5dbc dd0c 4c3d c6aa 803d
00000190: 6d38 afbd 3408 1c3d 2906 04bd 39e5 3d3d
000001a0: 871d 3b3d dbfd 74bd 4547 74bd 1013 273c
000001b0: 18cc 03bd 5694 b03c 3f76 74bc 60c4 78bd
000001c0: 65d0 19bd 3df7 253d e6ac 3f3d 126b 273c
000001d0: cd0c 7ebd 3661 783d f744 e5bc eabd 91bc
000001e0: d847 253d 3e64 863c 0bfd 663d c874 853b
000001f0: 512f f53b 69ec 063d 605e 0a3d f8ae 47bc
00000200: e4ae 38bd 07f1 303d 76e3 deba 0379 cfbc
00000210: e826 7dbd a060 1bbc 3259 be3b ec5a 673c
00000220: 0bbf d83b 8a11 0bbd 5ca1 38bd 2816 873c
00000230: 2e89 9dbc 6c19 623d ab48 bdbc ef4e 313d
00000240: e0ea d4bc 1d6b 31bc e2bf e5bb 6735 6a3d
00000250: c6af 88bd 8e6d 0b3c 24f2 30bc 80cf aa3c
00000260: 4634 3f3c afce 0dba ee9f 4e3c bc1a 073d
00000270: 5dc7 31bc 485b a53b a908 46bd f5d7 dbbc
00000280: 2770 81bd 0248 e13c f624 2c3c 1153 393d
00000290: 45bf e0bb ec07 80bc 613b b9bc 2a85 46bd
000002a0: 7e6a 7a3d 8d63 a5bc f6ac 04bd 0e94 b43c
000002b0: 4cf4 0e3c 81be 7f3d c3b1 933b ec76 8dbd
000002c0: f617 3c3d 9d0e 4bbd 9920 79bc 4a37 eb3a
000002d0: 3226 3abd 1eba 1abc 3b24 08bd 99c1 64bd
000002e0: 0001 91bd 789b 0dbc a95a b73a 1525 4c38
000002f0: caed 133d 0c63 73bd db76 4e3d ebee b93c
00000300: 9c86 6fbd 44ed d73a 57ea 383b fe63 0fbd
00000310: af46 37bd b7b2 273d 16a9 65bc b227 373d
00000320: 79a4 713d 010f 5c3d 6a65 343c 4313 0d3d
00000330: 45d9 2abd a984 0d3d fdf3 073c 899f e9bc
00000340: 3022 45bd 9252 d7bc 9416 243d 32fb ad3c
00000350: c8c3 613c f133 aa3c 8204 253d c36f db3c
00000360: 11d6 24bc 8a2d 4abd 141e 4ebd 436f eb3c
00000370: 34cf 84bd b5c7 153d b886 e8bc 0ac0 ecbc
00000380: b298 00bd 7d29 873c fa08 5d3d 5051 b13c
00000390: 94cc 873d 21f3 983d 2095 383d d390 f1bc
000003a0: a179 57bc d72e 1dbd 089e 5d3d 37c0 d9bb
000003b0: 2aa1 28bd 608e 293c 86c7 083d eb3f 63bd
000003c0: 1288 1cbd 0d24 de3c 9b3f 06bd 636a 573d
000003d0: ce67 05bd 004a 893c fdf9 e23b 2f39 1a3d
000003e0: 1a7a 80bd f0ac fdbb b133 42bb 5696 3f3d
000003f0: eea8 a4bd 06bc a7bc a130 9abc 336e 1abc
-0.04105839 0.022710342 0.051120833 0.023210922 -0.01585838 -0.07133565 -0.008721883 -0.003724696
0.068337336 0.03702147 -0.038834665 -0.0023912883 -0.025470687 0.045230195 -0.019243374 -0.042821508
-0.008196117 -0.058445156 -0.049465906 0.022711366 -0.034918353 0.052180037 0.010983929 0.054858617
0.0075212424 0.010697761 0.049320377 -0.045845814 -0.010045042 -0.033869486 -0.05383437 0.019858332
-0.057174854 0.050550003 0.040928084 0.044584315 -0.06807 -0.05636596 0.0063022687 0.02352259
0.0057434565 0.03694219 0.060828384 -0.016307537 0.024356958 0.0056638275 -0.040788013 0.0054181023
0.033022042 -0.048909765 0.020312542 0.0157713 0.0572255 0.057549983 -0.0018187625 0.018593168
-0.0060505397 -0.011998993 -0.033931985 0.064177856 0.05094334 -0.032966487 0.045598924 0.0010524706
-0.049365867 -0.030594619 0.0062875673 -0.0021217233 0.023562131 -0.015771812 -0.066938266 0.01763097
0.02871494 0.06782081 -0.001643201 0.074404106 -0.011049217 0.034973945 -0.008333255 0.04442909
-0.042639162 -0.05980625 -0.014687895 0.034727205 -0.053833894 -0.044586305 -0.023829494 -0.016639668
0.0117134405 0.044341628 -0.012098465 -0.04708032 0.0063320557 0.019020328 0.031657666 -0.011353486
0.041440587 -0.013505694 0.049816955 0.062825724 -0.08555684 0.03809376 -0.032232437 0.046361182
0.045682456 -0.059812408 -0.05963828 0.010197416 -0.03217706 0.021555107 -0.01492077 -0.060734153
-0.037552256 0.040518988 0.04679575 0.010218399 -0.062023927 0.060639583 -0.027986987 -0.017790753
0.04035172 0.016405221 0.056393664 0.0040727593 0.007482447 0.032940302 0.03378141 -0.012187712
-0.045088664 0.04319861 -0.0017005045 -0.025326258 -0.061804682 -0.009483486 0.0058089728 0.014120799
0.006614571 -0.033952273 -0.04507576 0.016490057 -0.019230451 0.055200025 -0.02310594 0.043288168
-0.025990903 -0.01082876 -0.0070113996 0.057179835 -0.06674151 0.008510007 -0.010799918 0.020850897
0.011670178 -0.00054095214 0.012611372 0.03298448 -0.010850755 0.005046282 -0.048348103 -0.026836375
-0.063202195 0.027500156 0.010506859 0.045245234 -0.0068587386 -0.015628777 -0.022611322 -0.04846684
0.061136715 -0.020189071 -0.03239151 0.022043254 0.008725237 0.062437538 0.004507275 -0.06907448
0.04592129 -0.049574483 -0.015205526 0.0017945555 -0.045446582 -0.009443788 -0.033237677 -0.05584869
-0.07080269 -0.008643024 0.0013988811 4.8671925e-05 0.036115445 -0.05942063 0.05040632 0.022696933
-0.058477983 0.0016473909 0.002821585 -0.03500747 -0.044745144 0.04094192 -0.014017364 0.04471559
0.058994744 0.053725246 0.011010507 0.034442198 -0.04171111 0.034550343 0.008297917 -0.028518455
-0.048128307 -0.02628449 0.040060595 0.021237943 0.013779588 0.02077672 0.040287502 0.02678669
-0.010060803 -0.049359836 -0.050321653 0.028739577 -0.06484833 0.03656741 -0.028384551 -0.028900165
-0.03139562 0.016499275 0.05396364 0.021645218 0.06630817 0.07468248 0.04506409 -0.029488003
-0.013151557 -0.038374748 0.05410579 -0.0066452282 -0.041169323 0.010348886 0.033393405 -0.05548088
-0.038215704 0.0271168 -0.032775503 0.052591693 -0.0325697 0.016758919 0.0069267736 0.03765219
-0.06273289 -0.007741563 -0.0029632861 0.04677423 -0.08040033 -0.020475399 -0.018822016 -0.009425688

bnorm.weight f4 [40]
00000000: e60a 813f d54f 813f 2ba8 803f e732 813f
00000010: 01cb 803f f4b7 813f ddf9 813f ab93 803f
00000020: 7f5e 823f 5312 823f 3a86 813f 84ab 823f
00000030: d22a 803f 8b5c 843f 2db2 813f 7d86 813f
00000040: 27fe 813f 7100 823f 0bda 813f f407 813f
00000050: 43c0 813f 9de6 803f adf3 803f ad1b 813f
00000060: 671d 823f 023d 813f c3d3 833f 65ca 803f
00000070: dd95 803f bd33 813f 1179 813f b24b 813f
00000080: 5943 823f b20f 823f 94de 823f 779d 843f
00000090: 6fe6 813f a74b 853f f081 813f f200 813f
1.0081451 1.0102488 1.0051321 1.0093659 1.0061952 1.0134263 1.0154377 1.0045065
1.0185088 1.0161842 1.0119088 1.0208592 1.0013068 1.0340742 1.01325 1.0119168
1.0155686 1.0156385 1.0144666 1.0080552 1.0136799 1.0070378 1.0074364 1.0086571
1.0165223 1.0096743 1.0299 1.0061766 1.0045735 1.0093914 1.0115072 1.0101225
1.0176803 1.016104 1.0224175 1.0360554 1.0148448 1.0413712 1.0117779 1.0078413

bnorm.bias f4 [40]
00000000: 436f 44bb e97f 6abc 100a 40bd 18cf 333d
00000010: 9892 a2bc f6b7 593d e894 8f3d 63e8 83bc
00000020: d4eb cbbc b9bb 1a3c 282a 9c3c 850f 0ebd
00000030: c8ce 503d 8f20 cdbd 4c59 17bd da29 1f3d
00000040: 0f75 8c3a 4ff5 aa3b 72f6 b93a 4e78 ae3c
00000050: 5f43 82bd 1b18 97bd 20f3 b7bc 0679 733c
00000060: 9f45 ab3d ab23 bc3c fdd6 173d 380e 0c3c
00000070: ae86 1c3d 272e 893c 4f0c 133c 3551 e93c
00000080: fd7b d33a 2629 adbc 45f3 2cbd 93c5 dc3d
00000090: f6f3 373d 142e 863b e7d4 d6bb 2434 5abd
-0.0029973544 -0.014312723 -0.046884596 0.043898672 -0.019845292 0.053153954 0.070108235 -0.016102022
-0.024892725 0.009444171 0.01906307 -0.03468277 0.050978452 -0.10015976 -0.036950395 0.038858272
0.0010716039 0.0052172313 0.0014187826 0.0212976 -0.06360506 -0.07377645 -0.022454798 0.014860397
0.083628885 0.022966227 0.037070263 0.008548312 0.038214378 0.01674564 0.008975103 0.028481105
0.0016134974 -0.021137785 -0.042224187 0.10779872 0.044910394 0.0040948484 -0.0065561417 -0.05327238

bnorm.running_mean f4 [40]
00000000: 1fc2 09bd fe0b 09bc d2f9 8e3a 8375 703c
00000010: 568c 10bc ca12 bc3b 85a7 0c3c e74d 5abb
00000020: e11d d73b f0a4 7bba 2610 273c bc98 713c
00000030: 3192 d2bc 5436 f33b c6a4 74bc 73b0 d83b
00000040: a6d4 37bc 9dd6 c9bc b0f6 973c e43b cd3c
00000050: 667d b2ba ac32 47ba b8a1 753b d358 1abc
00000060: b6dc 853b b11a aa3b f9b5 16bb be55 2a3c
00000070: 3a87 4dbc ff29 683c 1b64 a7ba 6048 2d3c
00000080: 83c6 cd3b 1a0e 0e3c c56a b7ba e563 be3b
00000090: 5543 46bb 8e4d 8d3b aabf 8e3c 0447 4fbb
-0.033632394 -0.008364676 0.0010908192 0.0146764545 -0.008822521 0.0057395445 0.008584862 -0.0033310594
0.006564841 -0.0009599468 0.010196721 0.014745887 -0.025704475 0.007422248 -0.014931863 0.0066128313
-0.011220133 -0.024638468 0.018550247 0.025052972 -0.0013617694 -0.0007598798 0.0037480425 -0.009420591
0.0040851487 0.00519117 -0.0022996648 0.010396419 -0.012544448 0.014170169 -0.0012770923 0.010576338
0.006279768 0.008670354 -0.0013993612 0.005810248 -0.0030252535 0.0043122238 0.017425377 -0.0031628022

bnorm.running_var f4 [40]
00000000: ed67 6e40 e71a cf3f 7fca a93f 1881 643f
00000010: ffd8 9b3f b149 b13f d6e8 8a3f a7cc 893f
00000020: 9a3d 9a3f 72b9 c43f aba5 ba3f f594 1040
00000030: 3d61 ae3f 330f fc3f 0149 0a40 0b47 a73f
00000040: 9037 983f 9659 4840 339e 0240 5ab8 1840
00000050: a556 f43f 1d5c d33f c9a7 953f 54cd 0540
00000060: 6c64 a13f 6018 0a40 c047 b23f d5a8 f33f
00000070: 25c7 7f40 22ba f53f 8009 a33f 54fe aa3f
00000080: 7e07 ee3f 17f1 1340 a3fc 9a3f 20ed d23f
00000090: ca8c c23f 98ed 9b3f 3cd3 ad3f 1735 aa3f
3.7250931 1.6180085 1.3264922 0.8925948 1.2175597 1.3850614 1.0852306 1.076558
1.2050049 1.5369093 1.4581808 2.2590916 1.3623425 1.9692138 2.1607058 1.3068556
1.1891956 3.130468 2.0409057 2.386252 1.9088942 1.6512486 1.1691829 2.0906572
1.2608771 2.1577377 1.3928146 1.9035898 3.9965298 1.9197428 1.2737274 1.3358865
1.8596036 2.31159 1.2108349 1.6478615 1.5199215 1.2181883 1.3580089 1.3297452

final_layer.conv_classifier.weight f4 [2, 40, 34, 1]
00000000: 14b2 9a3b ac5f 8a3c 4aa2 423d b324 e6bc
00000010: 6b7d 883b 7264 6ebd 7467 643c 88f5 b13b
00000020: ac83 5c3d dd83 2ebd 690e 1a3c f129 61bc
00000030: ae92 553d b5d2 183d 6f1b a7bc a0cf f6bc
00000040: db1c 4ebc 8688 3c3d 7406 7fbc 63d6 06bc
00000050: 2c6f 893d 9393 cb3a 379a c13c 9151 76bc
00000060: cf62 053d 1a33 80bc edfa 06bd f9ab fa3c
00000070: b7c8 0fbd 5c50 40bd 8da5 9cbc 3396 2f3d
00000080: b262 593b a35e 5b3b 4119 64bd 173d 91bd
00000090: 6c98 9ebd c1bc 42bd b53a 7e3c 66e3 b53b
000000a0: 6269 043d 4508 1ebc 617f 843b ca48 883d
000000b0: e998 50bc f95a 56bd 0f7d d1ba 0b37 7f3b
000000c0: 4ceb 50bd fa69 c3bc 4690 12bd da05 aebc
000000d0: 1f3e 8bbd 5920 683c add8 b2bc 2541 a7bc
000000e0: 9be3 dcbc fa77 d33c 6821 55bd 1c0f 893c
000000f0: b11f 783c 9b3f 333d 4908 1d3d 43bf 53bd
00000100: e2bf b3bc 28c4 d2bc 5036 adbc 66ca 65bd
00000110: 5bec 55bd 6dea ba3c 2852 2e3d 3356 e63b
00000120: 7a82 32bd 4f39 79bc c7a2 143d 3a4b b93b
00000130: 1d1e b2bc fe83 403b aa92 073d 1f65 35bb
00000140: 7e4d a1bc 6bb9 233a b8d1 333d 380c 78b8
00000150: b800 193c 2a8d b53c 645f b33d 4923 583d
00000160: cb3f 91bd 8df9 78bd 063a 2abd 4b13 11bd
00000170: d476 adbc b467 223c 9ff8 c8bc 06c2 5a3d
00000180: 7fe9 71bc 0c51 1b3d 9742 2dbc 7e1f 1fbd
00000190: fa7c 113d b1b7 1cbc dfa2 0bbc f0e7 e2bc
000001a0: 53ca 51bd 71e6 69bd 9e5b 393d 3603 b2bc
000001b0: fc11 db3c b08d ef3c 4749 f3bc e6b3 883c
000001c0: f375 703d ad37 a33d 6935 ebbc 0970 55bc
000001d0: 3593 163a 8c0f de3d 435e ad3c d712 f23d
000001e0: 5c6a c03d 49e2 053e 37d4 053e 1fe5 f53d
000001f0: 90ab af3c aa9b d7bc 6deb 253b 2377 d73c
00000200: 4d82 42bd 46aa 71bd ed82 103d 4bf4 2e3d
00000210: 2aef 08bd daa5 813b 2d77 46bd 1001 ea3c
00000220: 8d73 18bc f84f 1bbb 949a b03b e44e ed3c
00000230: e321 2dbd aff9 083c f542 75bd ccdf 84bc
00000240: 8b93 6abd 105d 37bb ca9a 1f3d aec5 90bd
00000250: 2b49 0d3c a8a6 1ebd 371a 2c3c fcdb 853c
00000260: fb95 84bc fda1 75bb a765 4cbd 8dba 693a
00000270: 453b 60bc 981e 813d 90cf 663d 82a5 5cbc
00000280: c389 2abc 329d 2d3d 4853 5c3d 88a7 153d
00000290: 6e8d b43d b430 c7bc f22e 5b3d 6b6e 673d
000002a0: 325f 2e3c c2a8 533c f817 013d 5c0e 743d
000002b0: 6596 003d 1ae7 fb3c 5a3f 40bd 40a3 d6bc
000002c0: 916d c03c f8ca 133c 1f77 adbc 0318 803c
000002d0: 4bfb 373d 3d89 983d 27ae a63c 8b07 993d
000002e0: 78bd 3d3d a1d1 413c b1bd 043d 0bdb d23a
000002f0: 1c5d d13c e1d5 353d d898 473d ba2a d8bb
00000300: 8798 c3bc 81f4 a2bd f1bd 19bd b88c 7fbd
00000310: b74b 6b3c 1f3a ddb8 e7f8 83bd 866a 3cbc
00000320: e475 36bd 43e9 5fbd 767f 5c3c dab2 16bd
00000330: c3b4 c2bc 1353 683d 8ce1 ec3b d6af 21bd
00000340: 4d81 7c3d ad7a 853b 96db 2d3c 3a8e 1e3d
00000350: 85c0 3d3c 5db9 2abd e6b6 b33c aaef d43c
00000360: acab 863c b6c6 143b a787 a13b b7cf 1a3d
00000370: 78a0 5c3d b322 5b3d 39ee fc3c 09f3 d4bc
00000380: c9d3 343d 3a48 553d 4276 1abd 0d35 133c
00000390: f36a a8bb 47e9 97bd b10e 20bd 8abb b3bd
000003a0: 45fb d2bc 39ab 81bd 6497 11bd 2374 083d
000003b0: 13b2 51bc 6a7e 403c e2ce e73c 712b 04bd
000003c0: f9ce 99bc dfd9 883d 8cb8 453d a63d 94bc
000003d0: 41d8 e73a 419f 9d3c ed2a af3c 4c1e f73c
000003e0: 4721 ac3a a0c4 333d 1724 8a3d b0c9 b13d
000003f0: 85ff 80bc 0b08 10bd dbf2 4eba ae2f 1abd
0.0047209356 0.016891323 0.047518052 -0.028093671 0.0041653416 -0.05820126 0.013940681 0.005430881
0.05383651 -0.042606223 0.00940285 -0.01374291 0.052141838 0.03731032 -0.020398824 -0.0301283
-0.012580122 0.046028636 -0.015565503 -0.008229825 0.067106575 0.0015531651 0.023633106 -0.015034095
0.032564934 -0.015649367 -0.032954145 0.030599581 -0.035103526 -0.046951637 -0.01912191 0.04286785
0.00331704 0.0033473156 -0.055688147 -0.0709173 -0.07743916 -0.04754329 0.015516927 0.0055507896
0.032327063 -0.009645526 0.004043505 0.066545084 -0.012731769 -0.052332852 -0.0015982705 0.003894272
-0.051005647 -0.023854245 -0.03578212 -0.021243025 -0.06798958 0.0141678685 -0.021831835 -0.020416806
-0.026964 0.025814045 -0.05203381 0.016730838 0.015144275 0.04376183 0.03833798 -0.051696073
-0.021942083 -0.0257283 -0.021144062 -0.056101225 -0.05222736 0.022816861 0.04255882 0.0070293187
-0.043581463 -0.015211417 0.03628805 0.0056547197 -0.021742875 0.0029375548 0.033098854 -0.002767868
-0.019690271 0.0006245586 0.043901175 -5.9139187e-05 0.00933855 0.022162039 0.08758429 0.052768026
-0.07092246 -0.060784865 -0.04155924 -0.03541879 -0.021174826 0.00991242 -0.024532614 0.05340769
-0.014765142 0.03791909 -0.010574958 -0.038848393 0.035519578 -0.00956528 -0.008522718 -0.027698487
-0.051218342 -0.05710453 0.04525339 -0.021730047 0.026741974 0.029242367 -0.029698027 0.016687345
0.058706235 0.07969604 -0.028711991 -0.0130272 0.00057439815 0.10842809 0.021163112 0.1182
0.093952864 0.13074602 0.13069235 0.12006592 0.021444112 -0.026319344 0.0025317327 0.026301926
-0.047487546 -0.059000276 0.03528111 0.042713445 -0.03343121 0.0039565386 -0.0484535 0.02856496
-0.009304893 -0.0023698788 0.005389521 0.028968282 -0.042268645 0.00836031 -0.05987831 -0.016219996
-0.057269614 -0.0027979054 0.038965978 -0.070689544 0.008623402 -0.038733155 0.010504297 0.016340248
-0.016184798 -0.0037480586 -0.04990163 0.0008916043 -0.013686006 0.063046634 0.05635029 -0.0134671945
-0.0104088215 0.04238624 0.05379036 0.036536723 0.08816038 -0.024315216 0.053511567 0.056501787
0.0106428135 0.012918653 0.031517 0.059584007 0.031393427 0.030749846 -0.046935417 -0.02620089
0.023489745 0.0090205595 -0.021174965 0.01563645 0.044917386 0.07448051 0.020346714 0.07472142
0.04632327 0.011829765 0.032407466 0.0016087008 0.025557093 0.044393424 0.048729748 -0.0065968903
-0.023876442 -0.07956792 -0.037534658 -0.06239006 0.014361314 -0.00010548927 -0.06443959 -0.011500007
-0.044546023 -0.054665815 0.013458123 -0.03679166 -0.023767835 0.05671985 0.0072290357 -0.03947433
0.06164675 0.004073462 0.010611435 0.038709857 0.011581545 -0.041680682 0.021937799 0.025993187
0.016439281 0.0022701449 0.004929501 0.03779575 0.053863972 0.05349989 0.030875312 -0.025994794
0.044147287 0.052070834 -0.037710436 0.008984816 -0.0051397025 -0.07417541 -0.03907651 -0.087760046
-0.02575458 -0.06331486 -0.035544768 0.03331388 -0.012798804 0.011748889 0.028296892 -0.03226799
-0.01877545 0.066821806 0.0482717 -0.018095803 0.001768835 0.019240977 0.021382773 0.030165814
0.0013132476 0.043888688 0.06745165 0.08681047 -0.015746841 -0.03516392 -0.00078944647 -0.037643127

final_layer.conv_classifier.bias f4 [2]
00000000: a8c9 19ba a8c9 193a
-0.0005866536 0.0005866536
